YOWO(
  (backbone_2d): Backbone2D(
    (backbone): FreeYOLO(
      (backbone): ELANNet_Large(
        (layer_1): Sequential(
          (0): Conv(
            (convs): Sequential(
              (0): Conv2d(3, 32, kernel_size=(3, 3), stride=(1, 1), padding=(1, 1), bias=False)
              (1): BatchNorm2d(32, eps=0.001, momentum=0.03, affine=True, track_running_stats=True)
              (2): SiLU(inplace=True)
            )
          )
          (1): Conv(
            (convs): Sequential(
              (0): Conv2d(32, 64, kernel_size=(3, 3), stride=(2, 2), padding=(1, 1), bias=False)
              (1): BatchNorm2d(64, eps=0.001, momentum=0.03, affine=True, track_running_stats=True)
              (2): SiLU(inplace=True)
            )
          )
          (2): Conv(
            (convs): Sequential(
              (0): Conv2d(64, 64, kernel_size=(3, 3), stride=(1, 1), padding=(1, 1), bias=False)
              (1): BatchNorm2d(64, eps=0.001, momentum=0.03, affine=True, track_running_stats=True)
              (2): SiLU(inplace=True)
            )
          )
        )
        (layer_2): Sequential(
          (0): Conv(
            (convs): Sequential(
              (0): Conv2d(64, 128, kernel_size=(3, 3), stride=(2, 2), padding=(1, 1), bias=False)
              (1): BatchNorm2d(128, eps=0.001, momentum=0.03, affine=True, track_running_stats=True)
              (2): SiLU(inplace=True)
            )
          )
          (1): ELANBlock(
            (cv1): Conv(
              (convs): Sequential(
                (0): Conv2d(128, 64, kernel_size=(1, 1), stride=(1, 1), bias=False)
                (1): BatchNorm2d(64, eps=0.001, momentum=0.03, affine=True, track_running_stats=True)
                (2): SiLU(inplace=True)
              )
            )
            (cv2): Conv(
              (convs): Sequential(
                (0): Conv2d(128, 64, kernel_size=(1, 1), stride=(1, 1), bias=False)
                (1): BatchNorm2d(64, eps=0.001, momentum=0.03, affine=True, track_running_stats=True)
                (2): SiLU(inplace=True)
              )
            )
            (cv3): Sequential(
              (0): Conv(
                (convs): Sequential(
                  (0): Conv2d(64, 64, kernel_size=(3, 3), stride=(1, 1), padding=(1, 1), bias=False)
                  (1): BatchNorm2d(64, eps=0.001, momentum=0.03, affine=True, track_running_stats=True)
                  (2): SiLU(inplace=True)
                )
              )
              (1): Conv(
                (convs): Sequential(
                  (0): Conv2d(64, 64, kernel_size=(3, 3), stride=(1, 1), padding=(1, 1), bias=False)
                  (1): BatchNorm2d(64, eps=0.001, momentum=0.03, affine=True, track_running_stats=True)
                  (2): SiLU(inplace=True)
                )
              )
            )
            (cv4): Sequential(
              (0): Conv(
                (convs): Sequential(
                  (0): Conv2d(64, 64, kernel_size=(3, 3), stride=(1, 1), padding=(1, 1), bias=False)
                  (1): BatchNorm2d(64, eps=0.001, momentum=0.03, affine=True, track_running_stats=True)
                  (2): SiLU(inplace=True)
                )
              )
              (1): Conv(
                (convs): Sequential(
                  (0): Conv2d(64, 64, kernel_size=(3, 3), stride=(1, 1), padding=(1, 1), bias=False)
                  (1): BatchNorm2d(64, eps=0.001, momentum=0.03, affine=True, track_running_stats=True)
                  (2): SiLU(inplace=True)
                )
              )
            )
            (out): Conv(
              (convs): Sequential(
                (0): Conv2d(256, 256, kernel_size=(1, 1), stride=(1, 1), bias=False)
                (1): BatchNorm2d(256, eps=0.001, momentum=0.03, affine=True, track_running_stats=True)
                (2): SiLU(inplace=True)
              )
            )
          )
        )
        (layer_3): Sequential(
          (0): DownSample(
            (mp): MaxPool2d(kernel_size=(2, 2), stride=2, padding=0, dilation=1, ceil_mode=False)
            (cv1): Conv(
              (convs): Sequential(
                (0): Conv2d(256, 128, kernel_size=(1, 1), stride=(1, 1), bias=False)
                (1): BatchNorm2d(128, eps=0.001, momentum=0.03, affine=True, track_running_stats=True)
                (2): SiLU(inplace=True)
              )
            )
            (cv2): Sequential(
              (0): Conv(
                (convs): Sequential(
                  (0): Conv2d(256, 128, kernel_size=(1, 1), stride=(1, 1), bias=False)
                  (1): BatchNorm2d(128, eps=0.001, momentum=0.03, affine=True, track_running_stats=True)
                  (2): SiLU(inplace=True)
                )
              )
              (1): Conv(
                (convs): Sequential(
                  (0): Conv2d(128, 128, kernel_size=(3, 3), stride=(2, 2), padding=(1, 1), bias=False)
                  (1): BatchNorm2d(128, eps=0.001, momentum=0.03, affine=True, track_running_stats=True)
                  (2): SiLU(inplace=True)
                )
              )
            )
          )
          (1): ELANBlock(
            (cv1): Conv(
              (convs): Sequential(
                (0): Conv2d(256, 128, kernel_size=(1, 1), stride=(1, 1), bias=False)
                (1): BatchNorm2d(128, eps=0.001, momentum=0.03, affine=True, track_running_stats=True)
                (2): SiLU(inplace=True)
              )
            )
            (cv2): Conv(
              (convs): Sequential(
                (0): Conv2d(256, 128, kernel_size=(1, 1), stride=(1, 1), bias=False)
                (1): BatchNorm2d(128, eps=0.001, momentum=0.03, affine=True, track_running_stats=True)
                (2): SiLU(inplace=True)
              )
            )
            (cv3): Sequential(
              (0): Conv(
                (convs): Sequential(
                  (0): Conv2d(128, 128, kernel_size=(3, 3), stride=(1, 1), padding=(1, 1), bias=False)
                  (1): BatchNorm2d(128, eps=0.001, momentum=0.03, affine=True, track_running_stats=True)
                  (2): SiLU(inplace=True)
                )
              )
              (1): Conv(
                (convs): Sequential(
                  (0): Conv2d(128, 128, kernel_size=(3, 3), stride=(1, 1), padding=(1, 1), bias=False)
                  (1): BatchNorm2d(128, eps=0.001, momentum=0.03, affine=True, track_running_stats=True)
                  (2): SiLU(inplace=True)
                )
              )
            )
            (cv4): Sequential(
              (0): Conv(
                (convs): Sequential(
                  (0): Conv2d(128, 128, kernel_size=(3, 3), stride=(1, 1), padding=(1, 1), bias=False)
                  (1): BatchNorm2d(128, eps=0.001, momentum=0.03, affine=True, track_running_stats=True)
                  (2): SiLU(inplace=True)
                )
              )
              (1): Conv(
                (convs): Sequential(
                  (0): Conv2d(128, 128, kernel_size=(3, 3), stride=(1, 1), padding=(1, 1), bias=False)
                  (1): BatchNorm2d(128, eps=0.001, momentum=0.03, affine=True, track_running_stats=True)
                  (2): SiLU(inplace=True)
                )
              )
            )
            (out): Conv(
              (convs): Sequential(
                (0): Conv2d(512, 512, kernel_size=(1, 1), stride=(1, 1), bias=False)
                (1): BatchNorm2d(512, eps=0.001, momentum=0.03, affine=True, track_running_stats=True)
                (2): SiLU(inplace=True)
              )
            )
          )
        )
        (layer_4): Sequential(
          (0): DownSample(
            (mp): MaxPool2d(kernel_size=(2, 2), stride=2, padding=0, dilation=1, ceil_mode=False)
            (cv1): Conv(
              (convs): Sequential(
                (0): Conv2d(512, 256, kernel_size=(1, 1), stride=(1, 1), bias=False)
                (1): BatchNorm2d(256, eps=0.001, momentum=0.03, affine=True, track_running_stats=True)
                (2): SiLU(inplace=True)
              )
            )
            (cv2): Sequential(
              (0): Conv(
                (convs): Sequential(
                  (0): Conv2d(512, 256, kernel_size=(1, 1), stride=(1, 1), bias=False)
                  (1): BatchNorm2d(256, eps=0.001, momentum=0.03, affine=True, track_running_stats=True)
                  (2): SiLU(inplace=True)
                )
              )
              (1): Conv(
                (convs): Sequential(
                  (0): Conv2d(256, 256, kernel_size=(3, 3), stride=(2, 2), padding=(1, 1), bias=False)
                  (1): BatchNorm2d(256, eps=0.001, momentum=0.03, affine=True, track_running_stats=True)
                  (2): SiLU(inplace=True)
                )
              )
            )
          )
          (1): ELANBlock(
            (cv1): Conv(
              (convs): Sequential(
                (0): Conv2d(512, 256, kernel_size=(1, 1), stride=(1, 1), bias=False)
                (1): BatchNorm2d(256, eps=0.001, momentum=0.03, affine=True, track_running_stats=True)
                (2): SiLU(inplace=True)
              )
            )
            (cv2): Conv(
              (convs): Sequential(
                (0): Conv2d(512, 256, kernel_size=(1, 1), stride=(1, 1), bias=False)
                (1): BatchNorm2d(256, eps=0.001, momentum=0.03, affine=True, track_running_stats=True)
                (2): SiLU(inplace=True)
              )
            )
            (cv3): Sequential(
              (0): Conv(
                (convs): Sequential(
                  (0): Conv2d(256, 256, kernel_size=(3, 3), stride=(1, 1), padding=(1, 1), bias=False)
                  (1): BatchNorm2d(256, eps=0.001, momentum=0.03, affine=True, track_running_stats=True)
                  (2): SiLU(inplace=True)
                )
              )
              (1): Conv(
                (convs): Sequential(
                  (0): Conv2d(256, 256, kernel_size=(3, 3), stride=(1, 1), padding=(1, 1), bias=False)
                  (1): BatchNorm2d(256, eps=0.001, momentum=0.03, affine=True, track_running_stats=True)
                  (2): SiLU(inplace=True)
                )
              )
            )
            (cv4): Sequential(
              (0): Conv(
                (convs): Sequential(
                  (0): Conv2d(256, 256, kernel_size=(3, 3), stride=(1, 1), padding=(1, 1), bias=False)
                  (1): BatchNorm2d(256, eps=0.001, momentum=0.03, affine=True, track_running_stats=True)
                  (2): SiLU(inplace=True)
                )
              )
              (1): Conv(
                (convs): Sequential(
                  (0): Conv2d(256, 256, kernel_size=(3, 3), stride=(1, 1), padding=(1, 1), bias=False)
                  (1): BatchNorm2d(256, eps=0.001, momentum=0.03, affine=True, track_running_stats=True)
                  (2): SiLU(inplace=True)
                )
              )
            )
            (out): Conv(
              (convs): Sequential(
                (0): Conv2d(1024, 1024, kernel_size=(1, 1), stride=(1, 1), bias=False)
                (1): BatchNorm2d(1024, eps=0.001, momentum=0.03, affine=True, track_running_stats=True)
                (2): SiLU(inplace=True)
              )
            )
          )
        )
        (layer_5): Sequential(
          (0): DownSample(
            (mp): MaxPool2d(kernel_size=(2, 2), stride=2, padding=0, dilation=1, ceil_mode=False)
            (cv1): Conv(
              (convs): Sequential(
                (0): Conv2d(1024, 512, kernel_size=(1, 1), stride=(1, 1), bias=False)
                (1): BatchNorm2d(512, eps=0.001, momentum=0.03, affine=True, track_running_stats=True)
                (2): SiLU(inplace=True)
              )
            )
            (cv2): Sequential(
              (0): Conv(
                (convs): Sequential(
                  (0): Conv2d(1024, 512, kernel_size=(1, 1), stride=(1, 1), bias=False)
                  (1): BatchNorm2d(512, eps=0.001, momentum=0.03, affine=True, track_running_stats=True)
                  (2): SiLU(inplace=True)
                )
              )
              (1): Conv(
                (convs): Sequential(
                  (0): Conv2d(512, 512, kernel_size=(3, 3), stride=(2, 2), padding=(1, 1), bias=False)
                  (1): BatchNorm2d(512, eps=0.001, momentum=0.03, affine=True, track_running_stats=True)
                  (2): SiLU(inplace=True)
                )
              )
            )
          )
          (1): ELANBlock(
            (cv1): Conv(
              (convs): Sequential(
                (0): Conv2d(1024, 256, kernel_size=(1, 1), stride=(1, 1), bias=False)
                (1): BatchNorm2d(256, eps=0.001, momentum=0.03, affine=True, track_running_stats=True)
                (2): SiLU(inplace=True)
              )
            )
            (cv2): Conv(
              (convs): Sequential(
                (0): Conv2d(1024, 256, kernel_size=(1, 1), stride=(1, 1), bias=False)
                (1): BatchNorm2d(256, eps=0.001, momentum=0.03, affine=True, track_running_stats=True)
                (2): SiLU(inplace=True)
              )
            )
            (cv3): Sequential(
              (0): Conv(
                (convs): Sequential(
                  (0): Conv2d(256, 256, kernel_size=(3, 3), stride=(1, 1), padding=(1, 1), bias=False)
                  (1): BatchNorm2d(256, eps=0.001, momentum=0.03, affine=True, track_running_stats=True)
                  (2): SiLU(inplace=True)
                )
              )
              (1): Conv(
                (convs): Sequential(
                  (0): Conv2d(256, 256, kernel_size=(3, 3), stride=(1, 1), padding=(1, 1), bias=False)
                  (1): BatchNorm2d(256, eps=0.001, momentum=0.03, affine=True, track_running_stats=True)
                  (2): SiLU(inplace=True)
                )
              )
            )
            (cv4): Sequential(
              (0): Conv(
                (convs): Sequential(
                  (0): Conv2d(256, 256, kernel_size=(3, 3), stride=(1, 1), padding=(1, 1), bias=False)
                  (1): BatchNorm2d(256, eps=0.001, momentum=0.03, affine=True, track_running_stats=True)
                  (2): SiLU(inplace=True)
                )
              )
              (1): Conv(
                (convs): Sequential(
                  (0): Conv2d(256, 256, kernel_size=(3, 3), stride=(1, 1), padding=(1, 1), bias=False)
                  (1): BatchNorm2d(256, eps=0.001, momentum=0.03, affine=True, track_running_stats=True)
                  (2): SiLU(inplace=True)
                )
              )
            )
            (out): Conv(
              (convs): Sequential(
                (0): Conv2d(1024, 1024, kernel_size=(1, 1), stride=(1, 1), bias=False)
                (1): BatchNorm2d(1024, eps=0.001, momentum=0.03, affine=True, track_running_stats=True)
                (2): SiLU(inplace=True)
              )
            )
          )
        )
      )
      (neck): SPPBlockCSP(
        (cv1): Conv(
          (convs): Sequential(
            (0): Conv2d(1024, 512, kernel_size=(1, 1), stride=(1, 1), bias=False)
            (1): BatchNorm2d(512, eps=0.001, momentum=0.03, affine=True, track_running_stats=True)
            (2): SiLU(inplace=True)
          )
        )
        (cv2): Conv(
          (convs): Sequential(
            (0): Conv2d(1024, 512, kernel_size=(1, 1), stride=(1, 1), bias=False)
            (1): BatchNorm2d(512, eps=0.001, momentum=0.03, affine=True, track_running_stats=True)
            (2): SiLU(inplace=True)
          )
        )
        (m): Sequential(
          (0): Conv(
            (convs): Sequential(
              (0): Conv2d(512, 512, kernel_size=(3, 3), stride=(1, 1), padding=(1, 1), bias=False)
              (1): BatchNorm2d(512, eps=0.001, momentum=0.03, affine=True, track_running_stats=True)
              (2): SiLU(inplace=True)
            )
          )
          (1): SPP(
            (cv1): Conv(
              (convs): Sequential(
                (0): Conv2d(512, 512, kernel_size=(1, 1), stride=(1, 1), bias=False)
                (1): BatchNorm2d(512, eps=0.001, momentum=0.03, affine=True, track_running_stats=True)
                (2): SiLU(inplace=True)
              )
            )
            (m): ModuleList(
              (0): MaxPool2d(kernel_size=5, stride=1, padding=2, dilation=1, ceil_mode=False)
              (1): MaxPool2d(kernel_size=9, stride=1, padding=4, dilation=1, ceil_mode=False)
              (2): MaxPool2d(kernel_size=13, stride=1, padding=6, dilation=1, ceil_mode=False)
            )
            (cv2): Conv(
              (convs): Sequential(
                (0): Conv2d(2048, 512, kernel_size=(1, 1), stride=(1, 1), bias=False)
                (1): BatchNorm2d(512, eps=0.001, momentum=0.03, affine=True, track_running_stats=True)
                (2): SiLU(inplace=True)
              )
            )
          )
          (2): Conv(
            (convs): Sequential(
              (0): Conv2d(512, 512, kernel_size=(3, 3), stride=(1, 1), padding=(1, 1), bias=False)
              (1): BatchNorm2d(512, eps=0.001, momentum=0.03, affine=True, track_running_stats=True)
              (2): SiLU(inplace=True)
            )
          )
        )
        (cv3): Conv(
          (convs): Sequential(
            (0): Conv2d(1024, 512, kernel_size=(1, 1), stride=(1, 1), bias=False)
            (1): BatchNorm2d(512, eps=0.001, momentum=0.03, affine=True, track_running_stats=True)
            (2): SiLU(inplace=True)
          )
        )
      )
      (fpn): PaFPNELAN(
        (cv1): Conv(
          (convs): Sequential(
            (0): Conv2d(512, 256, kernel_size=(1, 1), stride=(1, 1), bias=False)
            (1): BatchNorm2d(256, eps=0.001, momentum=0.03, affine=True, track_running_stats=True)
            (2): SiLU(inplace=True)
          )
        )
        (cv2): Conv(
          (convs): Sequential(
            (0): Conv2d(1024, 256, kernel_size=(1, 1), stride=(1, 1), bias=False)
            (1): BatchNorm2d(256, eps=0.001, momentum=0.03, affine=True, track_running_stats=True)
            (2): SiLU(inplace=True)
          )
        )
        (head_elan_1): ELANBlock(
          (cv1): Conv(
            (convs): Sequential(
              (0): Conv2d(512, 256, kernel_size=(1, 1), stride=(1, 1), bias=False)
              (1): BatchNorm2d(256, eps=0.001, momentum=0.03, affine=True, track_running_stats=True)
              (2): SiLU(inplace=True)
            )
          )
          (cv2): Conv(
            (convs): Sequential(
              (0): Conv2d(512, 256, kernel_size=(1, 1), stride=(1, 1), bias=False)
              (1): BatchNorm2d(256, eps=0.001, momentum=0.03, affine=True, track_running_stats=True)
              (2): SiLU(inplace=True)
            )
          )
          (cv3): ModuleList(
            (0): Conv(
              (convs): Sequential(
                (0): Conv2d(256, 128, kernel_size=(3, 3), stride=(1, 1), padding=(1, 1), bias=False)
                (1): BatchNorm2d(128, eps=0.001, momentum=0.03, affine=True, track_running_stats=True)
                (2): SiLU(inplace=True)
              )
            )
            (1-3): 3 x Conv(
              (convs): Sequential(
                (0): Conv2d(128, 128, kernel_size=(3, 3), stride=(1, 1), padding=(1, 1), bias=False)
                (1): BatchNorm2d(128, eps=0.001, momentum=0.03, affine=True, track_running_stats=True)
                (2): SiLU(inplace=True)
              )
            )
          )
          (out): Conv(
            (convs): Sequential(
              (0): Conv2d(1024, 256, kernel_size=(1, 1), stride=(1, 1), bias=False)
              (1): BatchNorm2d(256, eps=0.001, momentum=0.03, affine=True, track_running_stats=True)
              (2): SiLU(inplace=True)
            )
          )
        )
        (cv3): Conv(
          (convs): Sequential(
            (0): Conv2d(256, 128, kernel_size=(1, 1), stride=(1, 1), bias=False)
            (1): BatchNorm2d(128, eps=0.001, momentum=0.03, affine=True, track_running_stats=True)
            (2): SiLU(inplace=True)
          )
        )
        (cv4): Conv(
          (convs): Sequential(
            (0): Conv2d(512, 128, kernel_size=(1, 1), stride=(1, 1), bias=False)
            (1): BatchNorm2d(128, eps=0.001, momentum=0.03, affine=True, track_running_stats=True)
            (2): SiLU(inplace=True)
          )
        )
        (head_elan_2): ELANBlock(
          (cv1): Conv(
            (convs): Sequential(
              (0): Conv2d(256, 128, kernel_size=(1, 1), stride=(1, 1), bias=False)
              (1): BatchNorm2d(128, eps=0.001, momentum=0.03, affine=True, track_running_stats=True)
              (2): SiLU(inplace=True)
            )
          )
          (cv2): Conv(
            (convs): Sequential(
              (0): Conv2d(256, 128, kernel_size=(1, 1), stride=(1, 1), bias=False)
              (1): BatchNorm2d(128, eps=0.001, momentum=0.03, affine=True, track_running_stats=True)
              (2): SiLU(inplace=True)
            )
          )
          (cv3): ModuleList(
            (0): Conv(
              (convs): Sequential(
                (0): Conv2d(128, 64, kernel_size=(3, 3), stride=(1, 1), padding=(1, 1), bias=False)
                (1): BatchNorm2d(64, eps=0.001, momentum=0.03, affine=True, track_running_stats=True)
                (2): SiLU(inplace=True)
              )
            )
            (1-3): 3 x Conv(
              (convs): Sequential(
                (0): Conv2d(64, 64, kernel_size=(3, 3), stride=(1, 1), padding=(1, 1), bias=False)
                (1): BatchNorm2d(64, eps=0.001, momentum=0.03, affine=True, track_running_stats=True)
                (2): SiLU(inplace=True)
              )
            )
          )
          (out): Conv(
            (convs): Sequential(
              (0): Conv2d(512, 128, kernel_size=(1, 1), stride=(1, 1), bias=False)
              (1): BatchNorm2d(128, eps=0.001, momentum=0.03, affine=True, track_running_stats=True)
              (2): SiLU(inplace=True)
            )
          )
        )
        (mp1): DownSample(
          (mp): MaxPool2d(kernel_size=(2, 2), stride=2, padding=0, dilation=1, ceil_mode=False)
          (cv1): Conv(
            (convs): Sequential(
              (0): Conv2d(128, 128, kernel_size=(1, 1), stride=(1, 1), bias=False)
              (1): BatchNorm2d(128, eps=0.001, momentum=0.03, affine=True, track_running_stats=True)
              (2): SiLU(inplace=True)
            )
          )
          (cv2): Sequential(
            (0): Conv(
              (convs): Sequential(
                (0): Conv2d(128, 128, kernel_size=(1, 1), stride=(1, 1), bias=False)
                (1): BatchNorm2d(128, eps=0.001, momentum=0.03, affine=True, track_running_stats=True)
                (2): SiLU(inplace=True)
              )
            )
            (1): Conv(
              (convs): Sequential(
                (0): Conv2d(128, 128, kernel_size=(3, 3), stride=(2, 2), padding=(1, 1), bias=False)
                (1): BatchNorm2d(128, eps=0.001, momentum=0.03, affine=True, track_running_stats=True)
                (2): SiLU(inplace=True)
              )
            )
          )
        )
        (head_elan_3): ELANBlock(
          (cv1): Conv(
            (convs): Sequential(
              (0): Conv2d(512, 256, kernel_size=(1, 1), stride=(1, 1), bias=False)
              (1): BatchNorm2d(256, eps=0.001, momentum=0.03, affine=True, track_running_stats=True)
              (2): SiLU(inplace=True)
            )
          )
          (cv2): Conv(
            (convs): Sequential(
              (0): Conv2d(512, 256, kernel_size=(1, 1), stride=(1, 1), bias=False)
              (1): BatchNorm2d(256, eps=0.001, momentum=0.03, affine=True, track_running_stats=True)
              (2): SiLU(inplace=True)
            )
          )
          (cv3): ModuleList(
            (0): Conv(
              (convs): Sequential(
                (0): Conv2d(256, 128, kernel_size=(3, 3), stride=(1, 1), padding=(1, 1), bias=False)
                (1): BatchNorm2d(128, eps=0.001, momentum=0.03, affine=True, track_running_stats=True)
                (2): SiLU(inplace=True)
              )
            )
            (1-3): 3 x Conv(
              (convs): Sequential(
                (0): Conv2d(128, 128, kernel_size=(3, 3), stride=(1, 1), padding=(1, 1), bias=False)
                (1): BatchNorm2d(128, eps=0.001, momentum=0.03, affine=True, track_running_stats=True)
                (2): SiLU(inplace=True)
              )
            )
          )
          (out): Conv(
            (convs): Sequential(
              (0): Conv2d(1024, 256, kernel_size=(1, 1), stride=(1, 1), bias=False)
              (1): BatchNorm2d(256, eps=0.001, momentum=0.03, affine=True, track_running_stats=True)
              (2): SiLU(inplace=True)
            )
          )
        )
        (mp2): DownSample(
          (mp): MaxPool2d(kernel_size=(2, 2), stride=2, padding=0, dilation=1, ceil_mode=False)
          (cv1): Conv(
            (convs): Sequential(
              (0): Conv2d(256, 256, kernel_size=(1, 1), stride=(1, 1), bias=False)
              (1): BatchNorm2d(256, eps=0.001, momentum=0.03, affine=True, track_running_stats=True)
              (2): SiLU(inplace=True)
            )
          )
          (cv2): Sequential(
            (0): Conv(
              (convs): Sequential(
                (0): Conv2d(256, 256, kernel_size=(1, 1), stride=(1, 1), bias=False)
                (1): BatchNorm2d(256, eps=0.001, momentum=0.03, affine=True, track_running_stats=True)
                (2): SiLU(inplace=True)
              )
            )
            (1): Conv(
              (convs): Sequential(
                (0): Conv2d(256, 256, kernel_size=(3, 3), stride=(2, 2), padding=(1, 1), bias=False)
                (1): BatchNorm2d(256, eps=0.001, momentum=0.03, affine=True, track_running_stats=True)
                (2): SiLU(inplace=True)
              )
            )
          )
        )
        (head_elan_4): ELANBlock(
          (cv1): Conv(
            (convs): Sequential(
              (0): Conv2d(1024, 512, kernel_size=(1, 1), stride=(1, 1), bias=False)
              (1): BatchNorm2d(512, eps=0.001, momentum=0.03, affine=True, track_running_stats=True)
              (2): SiLU(inplace=True)
            )
          )
          (cv2): Conv(
            (convs): Sequential(
              (0): Conv2d(1024, 512, kernel_size=(1, 1), stride=(1, 1), bias=False)
              (1): BatchNorm2d(512, eps=0.001, momentum=0.03, affine=True, track_running_stats=True)
              (2): SiLU(inplace=True)
            )
          )
          (cv3): ModuleList(
            (0): Conv(
              (convs): Sequential(
                (0): Conv2d(512, 256, kernel_size=(3, 3), stride=(1, 1), padding=(1, 1), bias=False)
                (1): BatchNorm2d(256, eps=0.001, momentum=0.03, affine=True, track_running_stats=True)
                (2): SiLU(inplace=True)
              )
            )
            (1-3): 3 x Conv(
              (convs): Sequential(
                (0): Conv2d(256, 256, kernel_size=(3, 3), stride=(1, 1), padding=(1, 1), bias=False)
                (1): BatchNorm2d(256, eps=0.001, momentum=0.03, affine=True, track_running_stats=True)
                (2): SiLU(inplace=True)
              )
            )
          )
          (out): Conv(
            (convs): Sequential(
              (0): Conv2d(2048, 512, kernel_size=(1, 1), stride=(1, 1), bias=False)
              (1): BatchNorm2d(512, eps=0.001, momentum=0.03, affine=True, track_running_stats=True)
              (2): SiLU(inplace=True)
            )
          )
        )
        (head_conv_1): Conv(
          (convs): Sequential(
            (0): Conv2d(128, 256, kernel_size=(3, 3), stride=(1, 1), padding=(1, 1), bias=False)
            (1): BatchNorm2d(256, eps=0.001, momentum=0.03, affine=True, track_running_stats=True)
            (2): SiLU(inplace=True)
          )
        )
        (head_conv_2): Conv(
          (convs): Sequential(
            (0): Conv2d(256, 512, kernel_size=(3, 3), stride=(1, 1), padding=(1, 1), bias=False)
            (1): BatchNorm2d(512, eps=0.001, momentum=0.03, affine=True, track_running_stats=True)
            (2): SiLU(inplace=True)
          )
        )
        (head_conv_3): Conv(
          (convs): Sequential(
            (0): Conv2d(512, 1024, kernel_size=(3, 3), stride=(1, 1), padding=(1, 1), bias=False)
            (1): BatchNorm2d(1024, eps=0.001, momentum=0.03, affine=True, track_running_stats=True)
            (2): SiLU(inplace=True)
          )
        )
        (out_layers): ModuleList(
          (0): Conv(
            (convs): Sequential(
              (0): Conv2d(256, 256, kernel_size=(1, 1), stride=(1, 1), bias=False)
              (1): BatchNorm2d(256, eps=0.001, momentum=0.03, affine=True, track_running_stats=True)
              (2): SiLU(inplace=True)
            )
          )
          (1): Conv(
            (convs): Sequential(
              (0): Conv2d(512, 256, kernel_size=(1, 1), stride=(1, 1), bias=False)
              (1): BatchNorm2d(256, eps=0.001, momentum=0.03, affine=True, track_running_stats=True)
              (2): SiLU(inplace=True)
            )
          )
          (2): Conv(
            (convs): Sequential(
              (0): Conv2d(1024, 256, kernel_size=(1, 1), stride=(1, 1), bias=False)
              (1): BatchNorm2d(256, eps=0.001, momentum=0.03, affine=True, track_running_stats=True)
              (2): SiLU(inplace=True)
            )
          )
        )
      )
      (non_shared_heads): ModuleList(
        (0-2): 3 x DecoupledHead(
          (cls_feats): Sequential(
            (0): Conv(
              (convs): Sequential(
                (0): Conv2d(256, 256, kernel_size=(3, 3), stride=(1, 1), padding=(1, 1), bias=False)
                (1): BatchNorm2d(256, eps=0.001, momentum=0.03, affine=True, track_running_stats=True)
                (2): SiLU(inplace=True)
              )
            )
            (1): Conv(
              (convs): Sequential(
                (0): Conv2d(256, 256, kernel_size=(3, 3), stride=(1, 1), padding=(1, 1), bias=False)
                (1): BatchNorm2d(256, eps=0.001, momentum=0.03, affine=True, track_running_stats=True)
                (2): SiLU(inplace=True)
              )
            )
          )
          (reg_feats): Sequential(
            (0): Conv(
              (convs): Sequential(
                (0): Conv2d(256, 256, kernel_size=(3, 3), stride=(1, 1), padding=(1, 1), bias=False)
                (1): BatchNorm2d(256, eps=0.001, momentum=0.03, affine=True, track_running_stats=True)
                (2): SiLU(inplace=True)
              )
            )
            (1): Conv(
              (convs): Sequential(
                (0): Conv2d(256, 256, kernel_size=(3, 3), stride=(1, 1), padding=(1, 1), bias=False)
                (1): BatchNorm2d(256, eps=0.001, momentum=0.03, affine=True, track_running_stats=True)
                (2): SiLU(inplace=True)
              )
            )
          )
        )
      )
    )
  )
  (backbone_3d): Backbone3D(
    (backbone): SlowFast(
      (fast_conv1): Conv3d(3, 8, kernel_size=(5, 7, 7), stride=(1, 2, 2), padding=(2, 3, 3), bias=False)
      (fast_bn1): BatchNorm3d(8, eps=1e-05, momentum=0.1, affine=True, track_running_stats=True)
      (fast_relu): ReLU(inplace=True)
      (fast_maxpool): MaxPool3d(kernel_size=(1, 3, 3), stride=(1, 2, 2), padding=(0, 1, 1), dilation=1, ceil_mode=False)
      (fast_res2): Sequential(
        (0): Bottleneck(
          (conv1): Conv3d(8, 8, kernel_size=(3, 1, 1), stride=(1, 1, 1), padding=(1, 0, 0), bias=False)
          (bn1): BatchNorm3d(8, eps=1e-05, momentum=0.1, affine=True, track_running_stats=True)
          (conv2): Conv3d(8, 8, kernel_size=(1, 3, 3), stride=(1, 1, 1), padding=(0, 1, 1), bias=False)
          (bn2): BatchNorm3d(8, eps=1e-05, momentum=0.1, affine=True, track_running_stats=True)
          (conv3): Conv3d(8, 32, kernel_size=(1, 1, 1), stride=(1, 1, 1), bias=False)
          (bn3): BatchNorm3d(32, eps=1e-05, momentum=0.1, affine=True, track_running_stats=True)
          (relu): ReLU(inplace=True)
          (downsample): Sequential(
            (0): Conv3d(8, 32, kernel_size=(1, 1, 1), stride=(1, 1, 1), bias=False)
            (1): BatchNorm3d(32, eps=1e-05, momentum=0.1, affine=True, track_running_stats=True)
          )
        )
        (1): Bottleneck(
          (conv1): Conv3d(32, 8, kernel_size=(3, 1, 1), stride=(1, 1, 1), padding=(1, 0, 0), bias=False)
          (bn1): BatchNorm3d(8, eps=1e-05, momentum=0.1, affine=True, track_running_stats=True)
          (conv2): Conv3d(8, 8, kernel_size=(1, 3, 3), stride=(1, 1, 1), padding=(0, 1, 1), bias=False)
          (bn2): BatchNorm3d(8, eps=1e-05, momentum=0.1, affine=True, track_running_stats=True)
          (conv3): Conv3d(8, 32, kernel_size=(1, 1, 1), stride=(1, 1, 1), bias=False)
          (bn3): BatchNorm3d(32, eps=1e-05, momentum=0.1, affine=True, track_running_stats=True)
          (relu): ReLU(inplace=True)
        )
        (2): Bottleneck(
          (conv1): Conv3d(32, 8, kernel_size=(3, 1, 1), stride=(1, 1, 1), padding=(1, 0, 0), bias=False)
          (bn1): BatchNorm3d(8, eps=1e-05, momentum=0.1, affine=True, track_running_stats=True)
          (conv2): Conv3d(8, 8, kernel_size=(1, 3, 3), stride=(1, 1, 1), padding=(0, 1, 1), bias=False)
          (bn2): BatchNorm3d(8, eps=1e-05, momentum=0.1, affine=True, track_running_stats=True)
          (conv3): Conv3d(8, 32, kernel_size=(1, 1, 1), stride=(1, 1, 1), bias=False)
          (bn3): BatchNorm3d(32, eps=1e-05, momentum=0.1, affine=True, track_running_stats=True)
          (relu): ReLU(inplace=True)
        )
      )
      (fast_res3): Sequential(
        (0): Bottleneck(
          (conv1): Conv3d(32, 16, kernel_size=(3, 1, 1), stride=(1, 1, 1), padding=(1, 0, 0), bias=False)
          (bn1): BatchNorm3d(16, eps=1e-05, momentum=0.1, affine=True, track_running_stats=True)
          (conv2): Conv3d(16, 16, kernel_size=(1, 3, 3), stride=(1, 2, 2), padding=(0, 1, 1), bias=False)
          (bn2): BatchNorm3d(16, eps=1e-05, momentum=0.1, affine=True, track_running_stats=True)
          (conv3): Conv3d(16, 64, kernel_size=(1, 1, 1), stride=(1, 1, 1), bias=False)
          (bn3): BatchNorm3d(64, eps=1e-05, momentum=0.1, affine=True, track_running_stats=True)
          (relu): ReLU(inplace=True)
          (downsample): Sequential(
            (0): Conv3d(32, 64, kernel_size=(1, 1, 1), stride=(1, 2, 2), bias=False)
            (1): BatchNorm3d(64, eps=1e-05, momentum=0.1, affine=True, track_running_stats=True)
          )
        )
        (1): Bottleneck(
          (conv1): Conv3d(64, 16, kernel_size=(3, 1, 1), stride=(1, 1, 1), padding=(1, 0, 0), bias=False)
          (bn1): BatchNorm3d(16, eps=1e-05, momentum=0.1, affine=True, track_running_stats=True)
          (conv2): Conv3d(16, 16, kernel_size=(1, 3, 3), stride=(1, 1, 1), padding=(0, 1, 1), bias=False)
          (bn2): BatchNorm3d(16, eps=1e-05, momentum=0.1, affine=True, track_running_stats=True)
          (conv3): Conv3d(16, 64, kernel_size=(1, 1, 1), stride=(1, 1, 1), bias=False)
          (bn3): BatchNorm3d(64, eps=1e-05, momentum=0.1, affine=True, track_running_stats=True)
          (relu): ReLU(inplace=True)
        )
        (2): Bottleneck(
          (conv1): Conv3d(64, 16, kernel_size=(3, 1, 1), stride=(1, 1, 1), padding=(1, 0, 0), bias=False)
          (bn1): BatchNorm3d(16, eps=1e-05, momentum=0.1, affine=True, track_running_stats=True)
          (conv2): Conv3d(16, 16, kernel_size=(1, 3, 3), stride=(1, 1, 1), padding=(0, 1, 1), bias=False)
          (bn2): BatchNorm3d(16, eps=1e-05, momentum=0.1, affine=True, track_running_stats=True)
          (conv3): Conv3d(16, 64, kernel_size=(1, 1, 1), stride=(1, 1, 1), bias=False)
          (bn3): BatchNorm3d(64, eps=1e-05, momentum=0.1, affine=True, track_running_stats=True)
          (relu): ReLU(inplace=True)
        )
        (3): Bottleneck(
          (conv1): Conv3d(64, 16, kernel_size=(3, 1, 1), stride=(1, 1, 1), padding=(1, 0, 0), bias=False)
          (bn1): BatchNorm3d(16, eps=1e-05, momentum=0.1, affine=True, track_running_stats=True)
          (conv2): Conv3d(16, 16, kernel_size=(1, 3, 3), stride=(1, 1, 1), padding=(0, 1, 1), bias=False)
          (bn2): BatchNorm3d(16, eps=1e-05, momentum=0.1, affine=True, track_running_stats=True)
          (conv3): Conv3d(16, 64, kernel_size=(1, 1, 1), stride=(1, 1, 1), bias=False)
          (bn3): BatchNorm3d(64, eps=1e-05, momentum=0.1, affine=True, track_running_stats=True)
          (relu): ReLU(inplace=True)
        )
      )
      (fast_res4): Sequential(
        (0): Bottleneck(
          (conv1): Conv3d(64, 32, kernel_size=(3, 1, 1), stride=(1, 1, 1), padding=(1, 0, 0), bias=False)
          (bn1): BatchNorm3d(32, eps=1e-05, momentum=0.1, affine=True, track_running_stats=True)
          (conv2): Conv3d(32, 32, kernel_size=(1, 3, 3), stride=(1, 2, 2), padding=(0, 1, 1), bias=False)
          (bn2): BatchNorm3d(32, eps=1e-05, momentum=0.1, affine=True, track_running_stats=True)
          (conv3): Conv3d(32, 128, kernel_size=(1, 1, 1), stride=(1, 1, 1), bias=False)
          (bn3): BatchNorm3d(128, eps=1e-05, momentum=0.1, affine=True, track_running_stats=True)
          (relu): ReLU(inplace=True)
          (downsample): Sequential(
            (0): Conv3d(64, 128, kernel_size=(1, 1, 1), stride=(1, 2, 2), bias=False)
            (1): BatchNorm3d(128, eps=1e-05, momentum=0.1, affine=True, track_running_stats=True)
          )
        )
        (1): Bottleneck(
          (conv1): Conv3d(128, 32, kernel_size=(3, 1, 1), stride=(1, 1, 1), padding=(1, 0, 0), bias=False)
          (bn1): BatchNorm3d(32, eps=1e-05, momentum=0.1, affine=True, track_running_stats=True)
          (conv2): Conv3d(32, 32, kernel_size=(1, 3, 3), stride=(1, 1, 1), padding=(0, 1, 1), bias=False)
          (bn2): BatchNorm3d(32, eps=1e-05, momentum=0.1, affine=True, track_running_stats=True)
          (conv3): Conv3d(32, 128, kernel_size=(1, 1, 1), stride=(1, 1, 1), bias=False)
          (bn3): BatchNorm3d(128, eps=1e-05, momentum=0.1, affine=True, track_running_stats=True)
          (relu): ReLU(inplace=True)
        )
        (2): Bottleneck(
          (conv1): Conv3d(128, 32, kernel_size=(3, 1, 1), stride=(1, 1, 1), padding=(1, 0, 0), bias=False)
          (bn1): BatchNorm3d(32, eps=1e-05, momentum=0.1, affine=True, track_running_stats=True)
          (conv2): Conv3d(32, 32, kernel_size=(1, 3, 3), stride=(1, 1, 1), padding=(0, 1, 1), bias=False)
          (bn2): BatchNorm3d(32, eps=1e-05, momentum=0.1, affine=True, track_running_stats=True)
          (conv3): Conv3d(32, 128, kernel_size=(1, 1, 1), stride=(1, 1, 1), bias=False)
          (bn3): BatchNorm3d(128, eps=1e-05, momentum=0.1, affine=True, track_running_stats=True)
          (relu): ReLU(inplace=True)
        )
        (3): Bottleneck(
          (conv1): Conv3d(128, 32, kernel_size=(3, 1, 1), stride=(1, 1, 1), padding=(1, 0, 0), bias=False)
          (bn1): BatchNorm3d(32, eps=1e-05, momentum=0.1, affine=True, track_running_stats=True)
          (conv2): Conv3d(32, 32, kernel_size=(1, 3, 3), stride=(1, 1, 1), padding=(0, 1, 1), bias=False)
          (bn2): BatchNorm3d(32, eps=1e-05, momentum=0.1, affine=True, track_running_stats=True)
          (conv3): Conv3d(32, 128, kernel_size=(1, 1, 1), stride=(1, 1, 1), bias=False)
          (bn3): BatchNorm3d(128, eps=1e-05, momentum=0.1, affine=True, track_running_stats=True)
          (relu): ReLU(inplace=True)
        )
        (4): Bottleneck(
          (conv1): Conv3d(128, 32, kernel_size=(3, 1, 1), stride=(1, 1, 1), padding=(1, 0, 0), bias=False)
          (bn1): BatchNorm3d(32, eps=1e-05, momentum=0.1, affine=True, track_running_stats=True)
          (conv2): Conv3d(32, 32, kernel_size=(1, 3, 3), stride=(1, 1, 1), padding=(0, 1, 1), bias=False)
          (bn2): BatchNorm3d(32, eps=1e-05, momentum=0.1, affine=True, track_running_stats=True)
          (conv3): Conv3d(32, 128, kernel_size=(1, 1, 1), stride=(1, 1, 1), bias=False)
          (bn3): BatchNorm3d(128, eps=1e-05, momentum=0.1, affine=True, track_running_stats=True)
          (relu): ReLU(inplace=True)
        )
        (5): Bottleneck(
          (conv1): Conv3d(128, 32, kernel_size=(3, 1, 1), stride=(1, 1, 1), padding=(1, 0, 0), bias=False)
          (bn1): BatchNorm3d(32, eps=1e-05, momentum=0.1, affine=True, track_running_stats=True)
          (conv2): Conv3d(32, 32, kernel_size=(1, 3, 3), stride=(1, 1, 1), padding=(0, 1, 1), bias=False)
          (bn2): BatchNorm3d(32, eps=1e-05, momentum=0.1, affine=True, track_running_stats=True)
          (conv3): Conv3d(32, 128, kernel_size=(1, 1, 1), stride=(1, 1, 1), bias=False)
          (bn3): BatchNorm3d(128, eps=1e-05, momentum=0.1, affine=True, track_running_stats=True)
          (relu): ReLU(inplace=True)
        )
        (6): Bottleneck(
          (conv1): Conv3d(128, 32, kernel_size=(3, 1, 1), stride=(1, 1, 1), padding=(1, 0, 0), bias=False)
          (bn1): BatchNorm3d(32, eps=1e-05, momentum=0.1, affine=True, track_running_stats=True)
          (conv2): Conv3d(32, 32, kernel_size=(1, 3, 3), stride=(1, 1, 1), padding=(0, 1, 1), bias=False)
          (bn2): BatchNorm3d(32, eps=1e-05, momentum=0.1, affine=True, track_running_stats=True)
          (conv3): Conv3d(32, 128, kernel_size=(1, 1, 1), stride=(1, 1, 1), bias=False)
          (bn3): BatchNorm3d(128, eps=1e-05, momentum=0.1, affine=True, track_running_stats=True)
          (relu): ReLU(inplace=True)
        )
        (7): Bottleneck(
          (conv1): Conv3d(128, 32, kernel_size=(3, 1, 1), stride=(1, 1, 1), padding=(1, 0, 0), bias=False)
          (bn1): BatchNorm3d(32, eps=1e-05, momentum=0.1, affine=True, track_running_stats=True)
          (conv2): Conv3d(32, 32, kernel_size=(1, 3, 3), stride=(1, 1, 1), padding=(0, 1, 1), bias=False)
          (bn2): BatchNorm3d(32, eps=1e-05, momentum=0.1, affine=True, track_running_stats=True)
          (conv3): Conv3d(32, 128, kernel_size=(1, 1, 1), stride=(1, 1, 1), bias=False)
          (bn3): BatchNorm3d(128, eps=1e-05, momentum=0.1, affine=True, track_running_stats=True)
          (relu): ReLU(inplace=True)
        )
        (8): Bottleneck(
          (conv1): Conv3d(128, 32, kernel_size=(3, 1, 1), stride=(1, 1, 1), padding=(1, 0, 0), bias=False)
          (bn1): BatchNorm3d(32, eps=1e-05, momentum=0.1, affine=True, track_running_stats=True)
          (conv2): Conv3d(32, 32, kernel_size=(1, 3, 3), stride=(1, 1, 1), padding=(0, 1, 1), bias=False)
          (bn2): BatchNorm3d(32, eps=1e-05, momentum=0.1, affine=True, track_running_stats=True)
          (conv3): Conv3d(32, 128, kernel_size=(1, 1, 1), stride=(1, 1, 1), bias=False)
          (bn3): BatchNorm3d(128, eps=1e-05, momentum=0.1, affine=True, track_running_stats=True)
          (relu): ReLU(inplace=True)
        )
        (9): Bottleneck(
          (conv1): Conv3d(128, 32, kernel_size=(3, 1, 1), stride=(1, 1, 1), padding=(1, 0, 0), bias=False)
          (bn1): BatchNorm3d(32, eps=1e-05, momentum=0.1, affine=True, track_running_stats=True)
          (conv2): Conv3d(32, 32, kernel_size=(1, 3, 3), stride=(1, 1, 1), padding=(0, 1, 1), bias=False)
          (bn2): BatchNorm3d(32, eps=1e-05, momentum=0.1, affine=True, track_running_stats=True)
          (conv3): Conv3d(32, 128, kernel_size=(1, 1, 1), stride=(1, 1, 1), bias=False)
          (bn3): BatchNorm3d(128, eps=1e-05, momentum=0.1, affine=True, track_running_stats=True)
          (relu): ReLU(inplace=True)
        )
        (10): Bottleneck(
          (conv1): Conv3d(128, 32, kernel_size=(3, 1, 1), stride=(1, 1, 1), padding=(1, 0, 0), bias=False)
          (bn1): BatchNorm3d(32, eps=1e-05, momentum=0.1, affine=True, track_running_stats=True)
          (conv2): Conv3d(32, 32, kernel_size=(1, 3, 3), stride=(1, 1, 1), padding=(0, 1, 1), bias=False)
          (bn2): BatchNorm3d(32, eps=1e-05, momentum=0.1, affine=True, track_running_stats=True)
          (conv3): Conv3d(32, 128, kernel_size=(1, 1, 1), stride=(1, 1, 1), bias=False)
          (bn3): BatchNorm3d(128, eps=1e-05, momentum=0.1, affine=True, track_running_stats=True)
          (relu): ReLU(inplace=True)
        )
        (11): Bottleneck(
          (conv1): Conv3d(128, 32, kernel_size=(3, 1, 1), stride=(1, 1, 1), padding=(1, 0, 0), bias=False)
          (bn1): BatchNorm3d(32, eps=1e-05, momentum=0.1, affine=True, track_running_stats=True)
          (conv2): Conv3d(32, 32, kernel_size=(1, 3, 3), stride=(1, 1, 1), padding=(0, 1, 1), bias=False)
          (bn2): BatchNorm3d(32, eps=1e-05, momentum=0.1, affine=True, track_running_stats=True)
          (conv3): Conv3d(32, 128, kernel_size=(1, 1, 1), stride=(1, 1, 1), bias=False)
          (bn3): BatchNorm3d(128, eps=1e-05, momentum=0.1, affine=True, track_running_stats=True)
          (relu): ReLU(inplace=True)
        )
        (12): Bottleneck(
          (conv1): Conv3d(128, 32, kernel_size=(3, 1, 1), stride=(1, 1, 1), padding=(1, 0, 0), bias=False)
          (bn1): BatchNorm3d(32, eps=1e-05, momentum=0.1, affine=True, track_running_stats=True)
          (conv2): Conv3d(32, 32, kernel_size=(1, 3, 3), stride=(1, 1, 1), padding=(0, 1, 1), bias=False)
          (bn2): BatchNorm3d(32, eps=1e-05, momentum=0.1, affine=True, track_running_stats=True)
          (conv3): Conv3d(32, 128, kernel_size=(1, 1, 1), stride=(1, 1, 1), bias=False)
          (bn3): BatchNorm3d(128, eps=1e-05, momentum=0.1, affine=True, track_running_stats=True)
          (relu): ReLU(inplace=True)
        )
        (13): Bottleneck(
          (conv1): Conv3d(128, 32, kernel_size=(3, 1, 1), stride=(1, 1, 1), padding=(1, 0, 0), bias=False)
          (bn1): BatchNorm3d(32, eps=1e-05, momentum=0.1, affine=True, track_running_stats=True)
          (conv2): Conv3d(32, 32, kernel_size=(1, 3, 3), stride=(1, 1, 1), padding=(0, 1, 1), bias=False)
          (bn2): BatchNorm3d(32, eps=1e-05, momentum=0.1, affine=True, track_running_stats=True)
          (conv3): Conv3d(32, 128, kernel_size=(1, 1, 1), stride=(1, 1, 1), bias=False)
          (bn3): BatchNorm3d(128, eps=1e-05, momentum=0.1, affine=True, track_running_stats=True)
          (relu): ReLU(inplace=True)
        )
        (14): Bottleneck(
          (conv1): Conv3d(128, 32, kernel_size=(3, 1, 1), stride=(1, 1, 1), padding=(1, 0, 0), bias=False)
          (bn1): BatchNorm3d(32, eps=1e-05, momentum=0.1, affine=True, track_running_stats=True)
          (conv2): Conv3d(32, 32, kernel_size=(1, 3, 3), stride=(1, 1, 1), padding=(0, 1, 1), bias=False)
          (bn2): BatchNorm3d(32, eps=1e-05, momentum=0.1, affine=True, track_running_stats=True)
          (conv3): Conv3d(32, 128, kernel_size=(1, 1, 1), stride=(1, 1, 1), bias=False)
          (bn3): BatchNorm3d(128, eps=1e-05, momentum=0.1, affine=True, track_running_stats=True)
          (relu): ReLU(inplace=True)
        )
        (15): Bottleneck(
          (conv1): Conv3d(128, 32, kernel_size=(3, 1, 1), stride=(1, 1, 1), padding=(1, 0, 0), bias=False)
          (bn1): BatchNorm3d(32, eps=1e-05, momentum=0.1, affine=True, track_running_stats=True)
          (conv2): Conv3d(32, 32, kernel_size=(1, 3, 3), stride=(1, 1, 1), padding=(0, 1, 1), bias=False)
          (bn2): BatchNorm3d(32, eps=1e-05, momentum=0.1, affine=True, track_running_stats=True)
          (conv3): Conv3d(32, 128, kernel_size=(1, 1, 1), stride=(1, 1, 1), bias=False)
          (bn3): BatchNorm3d(128, eps=1e-05, momentum=0.1, affine=True, track_running_stats=True)
          (relu): ReLU(inplace=True)
        )
        (16): Bottleneck(
          (conv1): Conv3d(128, 32, kernel_size=(3, 1, 1), stride=(1, 1, 1), padding=(1, 0, 0), bias=False)
          (bn1): BatchNorm3d(32, eps=1e-05, momentum=0.1, affine=True, track_running_stats=True)
          (conv2): Conv3d(32, 32, kernel_size=(1, 3, 3), stride=(1, 1, 1), padding=(0, 1, 1), bias=False)
          (bn2): BatchNorm3d(32, eps=1e-05, momentum=0.1, affine=True, track_running_stats=True)
          (conv3): Conv3d(32, 128, kernel_size=(1, 1, 1), stride=(1, 1, 1), bias=False)
          (bn3): BatchNorm3d(128, eps=1e-05, momentum=0.1, affine=True, track_running_stats=True)
          (relu): ReLU(inplace=True)
        )
        (17): Bottleneck(
          (conv1): Conv3d(128, 32, kernel_size=(3, 1, 1), stride=(1, 1, 1), padding=(1, 0, 0), bias=False)
          (bn1): BatchNorm3d(32, eps=1e-05, momentum=0.1, affine=True, track_running_stats=True)
          (conv2): Conv3d(32, 32, kernel_size=(1, 3, 3), stride=(1, 1, 1), padding=(0, 1, 1), bias=False)
          (bn2): BatchNorm3d(32, eps=1e-05, momentum=0.1, affine=True, track_running_stats=True)
          (conv3): Conv3d(32, 128, kernel_size=(1, 1, 1), stride=(1, 1, 1), bias=False)
          (bn3): BatchNorm3d(128, eps=1e-05, momentum=0.1, affine=True, track_running_stats=True)
          (relu): ReLU(inplace=True)
        )
        (18): Bottleneck(
          (conv1): Conv3d(128, 32, kernel_size=(3, 1, 1), stride=(1, 1, 1), padding=(1, 0, 0), bias=False)
          (bn1): BatchNorm3d(32, eps=1e-05, momentum=0.1, affine=True, track_running_stats=True)
          (conv2): Conv3d(32, 32, kernel_size=(1, 3, 3), stride=(1, 1, 1), padding=(0, 1, 1), bias=False)
          (bn2): BatchNorm3d(32, eps=1e-05, momentum=0.1, affine=True, track_running_stats=True)
          (conv3): Conv3d(32, 128, kernel_size=(1, 1, 1), stride=(1, 1, 1), bias=False)
          (bn3): BatchNorm3d(128, eps=1e-05, momentum=0.1, affine=True, track_running_stats=True)
          (relu): ReLU(inplace=True)
        )
        (19): Bottleneck(
          (conv1): Conv3d(128, 32, kernel_size=(3, 1, 1), stride=(1, 1, 1), padding=(1, 0, 0), bias=False)
          (bn1): BatchNorm3d(32, eps=1e-05, momentum=0.1, affine=True, track_running_stats=True)
          (conv2): Conv3d(32, 32, kernel_size=(1, 3, 3), stride=(1, 1, 1), padding=(0, 1, 1), bias=False)
          (bn2): BatchNorm3d(32, eps=1e-05, momentum=0.1, affine=True, track_running_stats=True)
          (conv3): Conv3d(32, 128, kernel_size=(1, 1, 1), stride=(1, 1, 1), bias=False)
          (bn3): BatchNorm3d(128, eps=1e-05, momentum=0.1, affine=True, track_running_stats=True)
          (relu): ReLU(inplace=True)
        )
        (20): Bottleneck(
          (conv1): Conv3d(128, 32, kernel_size=(3, 1, 1), stride=(1, 1, 1), padding=(1, 0, 0), bias=False)
          (bn1): BatchNorm3d(32, eps=1e-05, momentum=0.1, affine=True, track_running_stats=True)
          (conv2): Conv3d(32, 32, kernel_size=(1, 3, 3), stride=(1, 1, 1), padding=(0, 1, 1), bias=False)
          (bn2): BatchNorm3d(32, eps=1e-05, momentum=0.1, affine=True, track_running_stats=True)
          (conv3): Conv3d(32, 128, kernel_size=(1, 1, 1), stride=(1, 1, 1), bias=False)
          (bn3): BatchNorm3d(128, eps=1e-05, momentum=0.1, affine=True, track_running_stats=True)
          (relu): ReLU(inplace=True)
        )
        (21): Bottleneck(
          (conv1): Conv3d(128, 32, kernel_size=(3, 1, 1), stride=(1, 1, 1), padding=(1, 0, 0), bias=False)
          (bn1): BatchNorm3d(32, eps=1e-05, momentum=0.1, affine=True, track_running_stats=True)
          (conv2): Conv3d(32, 32, kernel_size=(1, 3, 3), stride=(1, 1, 1), padding=(0, 1, 1), bias=False)
          (bn2): BatchNorm3d(32, eps=1e-05, momentum=0.1, affine=True, track_running_stats=True)
          (conv3): Conv3d(32, 128, kernel_size=(1, 1, 1), stride=(1, 1, 1), bias=False)
          (bn3): BatchNorm3d(128, eps=1e-05, momentum=0.1, affine=True, track_running_stats=True)
          (relu): ReLU(inplace=True)
        )
        (22): Bottleneck(
          (conv1): Conv3d(128, 32, kernel_size=(3, 1, 1), stride=(1, 1, 1), padding=(1, 0, 0), bias=False)
          (bn1): BatchNorm3d(32, eps=1e-05, momentum=0.1, affine=True, track_running_stats=True)
          (conv2): Conv3d(32, 32, kernel_size=(1, 3, 3), stride=(1, 1, 1), padding=(0, 1, 1), bias=False)
          (bn2): BatchNorm3d(32, eps=1e-05, momentum=0.1, affine=True, track_running_stats=True)
          (conv3): Conv3d(32, 128, kernel_size=(1, 1, 1), stride=(1, 1, 1), bias=False)
          (bn3): BatchNorm3d(128, eps=1e-05, momentum=0.1, affine=True, track_running_stats=True)
          (relu): ReLU(inplace=True)
        )
      )
      (fast_res5): Sequential(
        (0): Bottleneck(
          (conv1): Conv3d(128, 64, kernel_size=(3, 1, 1), stride=(1, 1, 1), padding=(1, 0, 0), bias=False)
          (bn1): BatchNorm3d(64, eps=1e-05, momentum=0.1, affine=True, track_running_stats=True)
          (conv2): Conv3d(64, 64, kernel_size=(1, 3, 3), stride=(1, 2, 2), padding=(0, 1, 1), bias=False)
          (bn2): BatchNorm3d(64, eps=1e-05, momentum=0.1, affine=True, track_running_stats=True)
          (conv3): Conv3d(64, 256, kernel_size=(1, 1, 1), stride=(1, 1, 1), bias=False)
          (bn3): BatchNorm3d(256, eps=1e-05, momentum=0.1, affine=True, track_running_stats=True)
          (relu): ReLU(inplace=True)
          (downsample): Sequential(
            (0): Conv3d(128, 256, kernel_size=(1, 1, 1), stride=(1, 2, 2), bias=False)
            (1): BatchNorm3d(256, eps=1e-05, momentum=0.1, affine=True, track_running_stats=True)
          )
        )
        (1): Bottleneck(
          (conv1): Conv3d(256, 64, kernel_size=(3, 1, 1), stride=(1, 1, 1), padding=(1, 0, 0), bias=False)
          (bn1): BatchNorm3d(64, eps=1e-05, momentum=0.1, affine=True, track_running_stats=True)
          (conv2): Conv3d(64, 64, kernel_size=(1, 3, 3), stride=(1, 1, 1), padding=(0, 1, 1), bias=False)
          (bn2): BatchNorm3d(64, eps=1e-05, momentum=0.1, affine=True, track_running_stats=True)
          (conv3): Conv3d(64, 256, kernel_size=(1, 1, 1), stride=(1, 1, 1), bias=False)
          (bn3): BatchNorm3d(256, eps=1e-05, momentum=0.1, affine=True, track_running_stats=True)
          (relu): ReLU(inplace=True)
        )
        (2): Bottleneck(
          (conv1): Conv3d(256, 64, kernel_size=(3, 1, 1), stride=(1, 1, 1), padding=(1, 0, 0), bias=False)
          (bn1): BatchNorm3d(64, eps=1e-05, momentum=0.1, affine=True, track_running_stats=True)
          (conv2): Conv3d(64, 64, kernel_size=(1, 3, 3), stride=(1, 1, 1), padding=(0, 1, 1), bias=False)
          (bn2): BatchNorm3d(64, eps=1e-05, momentum=0.1, affine=True, track_running_stats=True)
          (conv3): Conv3d(64, 256, kernel_size=(1, 1, 1), stride=(1, 1, 1), bias=False)
          (bn3): BatchNorm3d(256, eps=1e-05, momentum=0.1, affine=True, track_running_stats=True)
          (relu): ReLU(inplace=True)
        )
      )
      (lateral_p1): Conv3d(8, 16, kernel_size=(5, 1, 1), stride=(8, 1, 1), padding=(2, 0, 0), bias=False)
      (lateral_res2): Conv3d(32, 64, kernel_size=(5, 1, 1), stride=(8, 1, 1), padding=(2, 0, 0), bias=False)
      (lateral_res3): Conv3d(64, 128, kernel_size=(5, 1, 1), stride=(8, 1, 1), padding=(2, 0, 0), bias=False)
      (lateral_res4): Conv3d(128, 256, kernel_size=(5, 1, 1), stride=(8, 1, 1), padding=(2, 0, 0), bias=False)
      (slow_conv1): Conv3d(3, 64, kernel_size=(1, 7, 7), stride=(1, 2, 2), padding=(0, 3, 3), bias=False)
      (slow_bn1): BatchNorm3d(64, eps=1e-05, momentum=0.1, affine=True, track_running_stats=True)
      (slow_relu): ReLU(inplace=True)
      (slow_maxpool): MaxPool3d(kernel_size=(1, 3, 3), stride=(1, 2, 2), padding=(0, 1, 1), dilation=1, ceil_mode=False)
      (slow_res2): Sequential(
        (0): Bottleneck(
          (conv1): Conv3d(80, 64, kernel_size=(1, 1, 1), stride=(1, 1, 1), bias=False)
          (bn1): BatchNorm3d(64, eps=1e-05, momentum=0.1, affine=True, track_running_stats=True)
          (conv2): Conv3d(64, 64, kernel_size=(1, 3, 3), stride=(1, 1, 1), padding=(0, 1, 1), bias=False)
          (bn2): BatchNorm3d(64, eps=1e-05, momentum=0.1, affine=True, track_running_stats=True)
          (conv3): Conv3d(64, 256, kernel_size=(1, 1, 1), stride=(1, 1, 1), bias=False)
          (bn3): BatchNorm3d(256, eps=1e-05, momentum=0.1, affine=True, track_running_stats=True)
          (relu): ReLU(inplace=True)
          (downsample): Sequential(
            (0): Conv3d(80, 256, kernel_size=(1, 1, 1), stride=(1, 1, 1), bias=False)
            (1): BatchNorm3d(256, eps=1e-05, momentum=0.1, affine=True, track_running_stats=True)
          )
        )
        (1): Bottleneck(
          (conv1): Conv3d(256, 64, kernel_size=(1, 1, 1), stride=(1, 1, 1), bias=False)
          (bn1): BatchNorm3d(64, eps=1e-05, momentum=0.1, affine=True, track_running_stats=True)
          (conv2): Conv3d(64, 64, kernel_size=(1, 3, 3), stride=(1, 1, 1), padding=(0, 1, 1), bias=False)
          (bn2): BatchNorm3d(64, eps=1e-05, momentum=0.1, affine=True, track_running_stats=True)
          (conv3): Conv3d(64, 256, kernel_size=(1, 1, 1), stride=(1, 1, 1), bias=False)
          (bn3): BatchNorm3d(256, eps=1e-05, momentum=0.1, affine=True, track_running_stats=True)
          (relu): ReLU(inplace=True)
        )
        (2): Bottleneck(
          (conv1): Conv3d(256, 64, kernel_size=(1, 1, 1), stride=(1, 1, 1), bias=False)
          (bn1): BatchNorm3d(64, eps=1e-05, momentum=0.1, affine=True, track_running_stats=True)
          (conv2): Conv3d(64, 64, kernel_size=(1, 3, 3), stride=(1, 1, 1), padding=(0, 1, 1), bias=False)
          (bn2): BatchNorm3d(64, eps=1e-05, momentum=0.1, affine=True, track_running_stats=True)
          (conv3): Conv3d(64, 256, kernel_size=(1, 1, 1), stride=(1, 1, 1), bias=False)
          (bn3): BatchNorm3d(256, eps=1e-05, momentum=0.1, affine=True, track_running_stats=True)
          (relu): ReLU(inplace=True)
        )
      )
      (nonlocal_block_slow2): NonLocalBlock3D(
        (g): Conv3d(256, 128, kernel_size=(1, 1, 1), stride=(1, 1, 1))
        (theta): Conv3d(256, 128, kernel_size=(1, 1, 1), stride=(1, 1, 1))
        (phi): Conv3d(256, 128, kernel_size=(1, 1, 1), stride=(1, 1, 1))
        (W): Sequential(
          (0): Conv3d(128, 256, kernel_size=(1, 1, 1), stride=(1, 1, 1))
          (1): BatchNorm3d(256, eps=1e-05, momentum=0.1, affine=True, track_running_stats=True)
        )
        (cbam): CBAM(
          (channel_attention): ChannelAttention(
            (avg_pool): AdaptiveAvgPool3d(output_size=1)
            (max_pool): AdaptiveMaxPool3d(output_size=1)
            (fc): Sequential(
              (0): Conv3d(256, 16, kernel_size=(1, 1, 1), stride=(1, 1, 1), bias=False)
              (1): ReLU()
              (2): Conv3d(16, 256, kernel_size=(1, 1, 1), stride=(1, 1, 1), bias=False)
            )
            (sigmoid): Sigmoid()
          )
          (spatial_attention): SpatialAttention(
            (conv): Conv3d(2, 1, kernel_size=(7, 7, 7), stride=(1, 1, 1), padding=(3, 3, 3), bias=False)
            (sigmoid): Sigmoid()
          )
        )
      )
      (slow_res3): Sequential(
        (0): Bottleneck(
          (conv1): Conv3d(320, 128, kernel_size=(1, 1, 1), stride=(1, 1, 1), bias=False)
          (bn1): BatchNorm3d(128, eps=1e-05, momentum=0.1, affine=True, track_running_stats=True)
          (conv2): Conv3d(128, 128, kernel_size=(1, 3, 3), stride=(1, 2, 2), padding=(0, 1, 1), bias=False)
          (bn2): BatchNorm3d(128, eps=1e-05, momentum=0.1, affine=True, track_running_stats=True)
          (conv3): Conv3d(128, 512, kernel_size=(1, 1, 1), stride=(1, 1, 1), bias=False)
          (bn3): BatchNorm3d(512, eps=1e-05, momentum=0.1, affine=True, track_running_stats=True)
          (relu): ReLU(inplace=True)
          (downsample): Sequential(
            (0): Conv3d(320, 512, kernel_size=(1, 1, 1), stride=(1, 2, 2), bias=False)
            (1): BatchNorm3d(512, eps=1e-05, momentum=0.1, affine=True, track_running_stats=True)
          )
        )
        (1): Bottleneck(
          (conv1): Conv3d(512, 128, kernel_size=(1, 1, 1), stride=(1, 1, 1), bias=False)
          (bn1): BatchNorm3d(128, eps=1e-05, momentum=0.1, affine=True, track_running_stats=True)
          (conv2): Conv3d(128, 128, kernel_size=(1, 3, 3), stride=(1, 1, 1), padding=(0, 1, 1), bias=False)
          (bn2): BatchNorm3d(128, eps=1e-05, momentum=0.1, affine=True, track_running_stats=True)
          (conv3): Conv3d(128, 512, kernel_size=(1, 1, 1), stride=(1, 1, 1), bias=False)
          (bn3): BatchNorm3d(512, eps=1e-05, momentum=0.1, affine=True, track_running_stats=True)
          (relu): ReLU(inplace=True)
        )
        (2): Bottleneck(
          (conv1): Conv3d(512, 128, kernel_size=(1, 1, 1), stride=(1, 1, 1), bias=False)
          (bn1): BatchNorm3d(128, eps=1e-05, momentum=0.1, affine=True, track_running_stats=True)
          (conv2): Conv3d(128, 128, kernel_size=(1, 3, 3), stride=(1, 1, 1), padding=(0, 1, 1), bias=False)
          (bn2): BatchNorm3d(128, eps=1e-05, momentum=0.1, affine=True, track_running_stats=True)
          (conv3): Conv3d(128, 512, kernel_size=(1, 1, 1), stride=(1, 1, 1), bias=False)
          (bn3): BatchNorm3d(512, eps=1e-05, momentum=0.1, affine=True, track_running_stats=True)
          (relu): ReLU(inplace=True)
        )
        (3): Bottleneck(
          (conv1): Conv3d(512, 128, kernel_size=(1, 1, 1), stride=(1, 1, 1), bias=False)
          (bn1): BatchNorm3d(128, eps=1e-05, momentum=0.1, affine=True, track_running_stats=True)
          (conv2): Conv3d(128, 128, kernel_size=(1, 3, 3), stride=(1, 1, 1), padding=(0, 1, 1), bias=False)
          (bn2): BatchNorm3d(128, eps=1e-05, momentum=0.1, affine=True, track_running_stats=True)
          (conv3): Conv3d(128, 512, kernel_size=(1, 1, 1), stride=(1, 1, 1), bias=False)
          (bn3): BatchNorm3d(512, eps=1e-05, momentum=0.1, affine=True, track_running_stats=True)
          (relu): ReLU(inplace=True)
        )
      )
      (nonlocal_block_slow3): NonLocalBlock3D(
        (g): Conv3d(512, 256, kernel_size=(1, 1, 1), stride=(1, 1, 1))
        (theta): Conv3d(512, 256, kernel_size=(1, 1, 1), stride=(1, 1, 1))
        (phi): Conv3d(512, 256, kernel_size=(1, 1, 1), stride=(1, 1, 1))
        (W): Sequential(
          (0): Conv3d(256, 512, kernel_size=(1, 1, 1), stride=(1, 1, 1))
          (1): BatchNorm3d(512, eps=1e-05, momentum=0.1, affine=True, track_running_stats=True)
        )
        (cbam): CBAM(
          (channel_attention): ChannelAttention(
            (avg_pool): AdaptiveAvgPool3d(output_size=1)
            (max_pool): AdaptiveMaxPool3d(output_size=1)
            (fc): Sequential(
              (0): Conv3d(512, 32, kernel_size=(1, 1, 1), stride=(1, 1, 1), bias=False)
              (1): ReLU()
              (2): Conv3d(32, 512, kernel_size=(1, 1, 1), stride=(1, 1, 1), bias=False)
            )
            (sigmoid): Sigmoid()
          )
          (spatial_attention): SpatialAttention(
            (conv): Conv3d(2, 1, kernel_size=(7, 7, 7), stride=(1, 1, 1), padding=(3, 3, 3), bias=False)
            (sigmoid): Sigmoid()
          )
        )
      )
      (slow_res4): Sequential(
        (0): Bottleneck(
          (conv1): Conv3d(640, 256, kernel_size=(1, 1, 1), stride=(1, 1, 1), bias=False)
          (bn1): BatchNorm3d(256, eps=1e-05, momentum=0.1, affine=True, track_running_stats=True)
          (conv2): Conv3d(256, 256, kernel_size=(1, 3, 3), stride=(1, 2, 2), padding=(0, 1, 1), bias=False)
          (bn2): BatchNorm3d(256, eps=1e-05, momentum=0.1, affine=True, track_running_stats=True)
          (conv3): Conv3d(256, 1024, kernel_size=(1, 1, 1), stride=(1, 1, 1), bias=False)
          (bn3): BatchNorm3d(1024, eps=1e-05, momentum=0.1, affine=True, track_running_stats=True)
          (relu): ReLU(inplace=True)
          (downsample): Sequential(
            (0): Conv3d(640, 1024, kernel_size=(1, 1, 1), stride=(1, 2, 2), bias=False)
            (1): BatchNorm3d(1024, eps=1e-05, momentum=0.1, affine=True, track_running_stats=True)
          )
        )
        (1): Bottleneck(
          (conv1): Conv3d(1024, 256, kernel_size=(1, 1, 1), stride=(1, 1, 1), bias=False)
          (bn1): BatchNorm3d(256, eps=1e-05, momentum=0.1, affine=True, track_running_stats=True)
          (conv2): Conv3d(256, 256, kernel_size=(1, 3, 3), stride=(1, 1, 1), padding=(0, 1, 1), bias=False)
          (bn2): BatchNorm3d(256, eps=1e-05, momentum=0.1, affine=True, track_running_stats=True)
          (conv3): Conv3d(256, 1024, kernel_size=(1, 1, 1), stride=(1, 1, 1), bias=False)
          (bn3): BatchNorm3d(1024, eps=1e-05, momentum=0.1, affine=True, track_running_stats=True)
          (relu): ReLU(inplace=True)
        )
        (2): Bottleneck(
          (conv1): Conv3d(1024, 256, kernel_size=(1, 1, 1), stride=(1, 1, 1), bias=False)
          (bn1): BatchNorm3d(256, eps=1e-05, momentum=0.1, affine=True, track_running_stats=True)
          (conv2): Conv3d(256, 256, kernel_size=(1, 3, 3), stride=(1, 1, 1), padding=(0, 1, 1), bias=False)
          (bn2): BatchNorm3d(256, eps=1e-05, momentum=0.1, affine=True, track_running_stats=True)
          (conv3): Conv3d(256, 1024, kernel_size=(1, 1, 1), stride=(1, 1, 1), bias=False)
          (bn3): BatchNorm3d(1024, eps=1e-05, momentum=0.1, affine=True, track_running_stats=True)
          (relu): ReLU(inplace=True)
        )
        (3): Bottleneck(
          (conv1): Conv3d(1024, 256, kernel_size=(1, 1, 1), stride=(1, 1, 1), bias=False)
          (bn1): BatchNorm3d(256, eps=1e-05, momentum=0.1, affine=True, track_running_stats=True)
          (conv2): Conv3d(256, 256, kernel_size=(1, 3, 3), stride=(1, 1, 1), padding=(0, 1, 1), bias=False)
          (bn2): BatchNorm3d(256, eps=1e-05, momentum=0.1, affine=True, track_running_stats=True)
          (conv3): Conv3d(256, 1024, kernel_size=(1, 1, 1), stride=(1, 1, 1), bias=False)
          (bn3): BatchNorm3d(1024, eps=1e-05, momentum=0.1, affine=True, track_running_stats=True)
          (relu): ReLU(inplace=True)
        )
        (4): Bottleneck(
          (conv1): Conv3d(1024, 256, kernel_size=(1, 1, 1), stride=(1, 1, 1), bias=False)
          (bn1): BatchNorm3d(256, eps=1e-05, momentum=0.1, affine=True, track_running_stats=True)
          (conv2): Conv3d(256, 256, kernel_size=(1, 3, 3), stride=(1, 1, 1), padding=(0, 1, 1), bias=False)
          (bn2): BatchNorm3d(256, eps=1e-05, momentum=0.1, affine=True, track_running_stats=True)
          (conv3): Conv3d(256, 1024, kernel_size=(1, 1, 1), stride=(1, 1, 1), bias=False)
          (bn3): BatchNorm3d(1024, eps=1e-05, momentum=0.1, affine=True, track_running_stats=True)
          (relu): ReLU(inplace=True)
        )
        (5): Bottleneck(
          (conv1): Conv3d(1024, 256, kernel_size=(1, 1, 1), stride=(1, 1, 1), bias=False)
          (bn1): BatchNorm3d(256, eps=1e-05, momentum=0.1, affine=True, track_running_stats=True)
          (conv2): Conv3d(256, 256, kernel_size=(1, 3, 3), stride=(1, 1, 1), padding=(0, 1, 1), bias=False)
          (bn2): BatchNorm3d(256, eps=1e-05, momentum=0.1, affine=True, track_running_stats=True)
          (conv3): Conv3d(256, 1024, kernel_size=(1, 1, 1), stride=(1, 1, 1), bias=False)
          (bn3): BatchNorm3d(1024, eps=1e-05, momentum=0.1, affine=True, track_running_stats=True)
          (relu): ReLU(inplace=True)
        )
        (6): Bottleneck(
          (conv1): Conv3d(1024, 256, kernel_size=(1, 1, 1), stride=(1, 1, 1), bias=False)
          (bn1): BatchNorm3d(256, eps=1e-05, momentum=0.1, affine=True, track_running_stats=True)
          (conv2): Conv3d(256, 256, kernel_size=(1, 3, 3), stride=(1, 1, 1), padding=(0, 1, 1), bias=False)
          (bn2): BatchNorm3d(256, eps=1e-05, momentum=0.1, affine=True, track_running_stats=True)
          (conv3): Conv3d(256, 1024, kernel_size=(1, 1, 1), stride=(1, 1, 1), bias=False)
          (bn3): BatchNorm3d(1024, eps=1e-05, momentum=0.1, affine=True, track_running_stats=True)
          (relu): ReLU(inplace=True)
        )
        (7): Bottleneck(
          (conv1): Conv3d(1024, 256, kernel_size=(1, 1, 1), stride=(1, 1, 1), bias=False)
          (bn1): BatchNorm3d(256, eps=1e-05, momentum=0.1, affine=True, track_running_stats=True)
          (conv2): Conv3d(256, 256, kernel_size=(1, 3, 3), stride=(1, 1, 1), padding=(0, 1, 1), bias=False)
          (bn2): BatchNorm3d(256, eps=1e-05, momentum=0.1, affine=True, track_running_stats=True)
          (conv3): Conv3d(256, 1024, kernel_size=(1, 1, 1), stride=(1, 1, 1), bias=False)
          (bn3): BatchNorm3d(1024, eps=1e-05, momentum=0.1, affine=True, track_running_stats=True)
          (relu): ReLU(inplace=True)
        )
        (8): Bottleneck(
          (conv1): Conv3d(1024, 256, kernel_size=(1, 1, 1), stride=(1, 1, 1), bias=False)
          (bn1): BatchNorm3d(256, eps=1e-05, momentum=0.1, affine=True, track_running_stats=True)
          (conv2): Conv3d(256, 256, kernel_size=(1, 3, 3), stride=(1, 1, 1), padding=(0, 1, 1), bias=False)
          (bn2): BatchNorm3d(256, eps=1e-05, momentum=0.1, affine=True, track_running_stats=True)
          (conv3): Conv3d(256, 1024, kernel_size=(1, 1, 1), stride=(1, 1, 1), bias=False)
          (bn3): BatchNorm3d(1024, eps=1e-05, momentum=0.1, affine=True, track_running_stats=True)
          (relu): ReLU(inplace=True)
        )
        (9): Bottleneck(
          (conv1): Conv3d(1024, 256, kernel_size=(1, 1, 1), stride=(1, 1, 1), bias=False)
          (bn1): BatchNorm3d(256, eps=1e-05, momentum=0.1, affine=True, track_running_stats=True)
          (conv2): Conv3d(256, 256, kernel_size=(1, 3, 3), stride=(1, 1, 1), padding=(0, 1, 1), bias=False)
          (bn2): BatchNorm3d(256, eps=1e-05, momentum=0.1, affine=True, track_running_stats=True)
          (conv3): Conv3d(256, 1024, kernel_size=(1, 1, 1), stride=(1, 1, 1), bias=False)
          (bn3): BatchNorm3d(1024, eps=1e-05, momentum=0.1, affine=True, track_running_stats=True)
          (relu): ReLU(inplace=True)
        )
        (10): Bottleneck(
          (conv1): Conv3d(1024, 256, kernel_size=(1, 1, 1), stride=(1, 1, 1), bias=False)
          (bn1): BatchNorm3d(256, eps=1e-05, momentum=0.1, affine=True, track_running_stats=True)
          (conv2): Conv3d(256, 256, kernel_size=(1, 3, 3), stride=(1, 1, 1), padding=(0, 1, 1), bias=False)
          (bn2): BatchNorm3d(256, eps=1e-05, momentum=0.1, affine=True, track_running_stats=True)
          (conv3): Conv3d(256, 1024, kernel_size=(1, 1, 1), stride=(1, 1, 1), bias=False)
          (bn3): BatchNorm3d(1024, eps=1e-05, momentum=0.1, affine=True, track_running_stats=True)
          (relu): ReLU(inplace=True)
        )
        (11): Bottleneck(
          (conv1): Conv3d(1024, 256, kernel_size=(1, 1, 1), stride=(1, 1, 1), bias=False)
          (bn1): BatchNorm3d(256, eps=1e-05, momentum=0.1, affine=True, track_running_stats=True)
          (conv2): Conv3d(256, 256, kernel_size=(1, 3, 3), stride=(1, 1, 1), padding=(0, 1, 1), bias=False)
          (bn2): BatchNorm3d(256, eps=1e-05, momentum=0.1, affine=True, track_running_stats=True)
          (conv3): Conv3d(256, 1024, kernel_size=(1, 1, 1), stride=(1, 1, 1), bias=False)
          (bn3): BatchNorm3d(1024, eps=1e-05, momentum=0.1, affine=True, track_running_stats=True)
          (relu): ReLU(inplace=True)
        )
        (12): Bottleneck(
          (conv1): Conv3d(1024, 256, kernel_size=(1, 1, 1), stride=(1, 1, 1), bias=False)
          (bn1): BatchNorm3d(256, eps=1e-05, momentum=0.1, affine=True, track_running_stats=True)
          (conv2): Conv3d(256, 256, kernel_size=(1, 3, 3), stride=(1, 1, 1), padding=(0, 1, 1), bias=False)
          (bn2): BatchNorm3d(256, eps=1e-05, momentum=0.1, affine=True, track_running_stats=True)
          (conv3): Conv3d(256, 1024, kernel_size=(1, 1, 1), stride=(1, 1, 1), bias=False)
          (bn3): BatchNorm3d(1024, eps=1e-05, momentum=0.1, affine=True, track_running_stats=True)
          (relu): ReLU(inplace=True)
        )
        (13): Bottleneck(
          (conv1): Conv3d(1024, 256, kernel_size=(1, 1, 1), stride=(1, 1, 1), bias=False)
          (bn1): BatchNorm3d(256, eps=1e-05, momentum=0.1, affine=True, track_running_stats=True)
          (conv2): Conv3d(256, 256, kernel_size=(1, 3, 3), stride=(1, 1, 1), padding=(0, 1, 1), bias=False)
          (bn2): BatchNorm3d(256, eps=1e-05, momentum=0.1, affine=True, track_running_stats=True)
          (conv3): Conv3d(256, 1024, kernel_size=(1, 1, 1), stride=(1, 1, 1), bias=False)
          (bn3): BatchNorm3d(1024, eps=1e-05, momentum=0.1, affine=True, track_running_stats=True)
          (relu): ReLU(inplace=True)
        )
        (14): Bottleneck(
          (conv1): Conv3d(1024, 256, kernel_size=(1, 1, 1), stride=(1, 1, 1), bias=False)
          (bn1): BatchNorm3d(256, eps=1e-05, momentum=0.1, affine=True, track_running_stats=True)
          (conv2): Conv3d(256, 256, kernel_size=(1, 3, 3), stride=(1, 1, 1), padding=(0, 1, 1), bias=False)
          (bn2): BatchNorm3d(256, eps=1e-05, momentum=0.1, affine=True, track_running_stats=True)
          (conv3): Conv3d(256, 1024, kernel_size=(1, 1, 1), stride=(1, 1, 1), bias=False)
          (bn3): BatchNorm3d(1024, eps=1e-05, momentum=0.1, affine=True, track_running_stats=True)
          (relu): ReLU(inplace=True)
        )
        (15): Bottleneck(
          (conv1): Conv3d(1024, 256, kernel_size=(1, 1, 1), stride=(1, 1, 1), bias=False)
          (bn1): BatchNorm3d(256, eps=1e-05, momentum=0.1, affine=True, track_running_stats=True)
          (conv2): Conv3d(256, 256, kernel_size=(1, 3, 3), stride=(1, 1, 1), padding=(0, 1, 1), bias=False)
          (bn2): BatchNorm3d(256, eps=1e-05, momentum=0.1, affine=True, track_running_stats=True)
          (conv3): Conv3d(256, 1024, kernel_size=(1, 1, 1), stride=(1, 1, 1), bias=False)
          (bn3): BatchNorm3d(1024, eps=1e-05, momentum=0.1, affine=True, track_running_stats=True)
          (relu): ReLU(inplace=True)
        )
        (16): Bottleneck(
          (conv1): Conv3d(1024, 256, kernel_size=(1, 1, 1), stride=(1, 1, 1), bias=False)
          (bn1): BatchNorm3d(256, eps=1e-05, momentum=0.1, affine=True, track_running_stats=True)
          (conv2): Conv3d(256, 256, kernel_size=(1, 3, 3), stride=(1, 1, 1), padding=(0, 1, 1), bias=False)
          (bn2): BatchNorm3d(256, eps=1e-05, momentum=0.1, affine=True, track_running_stats=True)
          (conv3): Conv3d(256, 1024, kernel_size=(1, 1, 1), stride=(1, 1, 1), bias=False)
          (bn3): BatchNorm3d(1024, eps=1e-05, momentum=0.1, affine=True, track_running_stats=True)
          (relu): ReLU(inplace=True)
        )
        (17): Bottleneck(
          (conv1): Conv3d(1024, 256, kernel_size=(1, 1, 1), stride=(1, 1, 1), bias=False)
          (bn1): BatchNorm3d(256, eps=1e-05, momentum=0.1, affine=True, track_running_stats=True)
          (conv2): Conv3d(256, 256, kernel_size=(1, 3, 3), stride=(1, 1, 1), padding=(0, 1, 1), bias=False)
          (bn2): BatchNorm3d(256, eps=1e-05, momentum=0.1, affine=True, track_running_stats=True)
          (conv3): Conv3d(256, 1024, kernel_size=(1, 1, 1), stride=(1, 1, 1), bias=False)
          (bn3): BatchNorm3d(1024, eps=1e-05, momentum=0.1, affine=True, track_running_stats=True)
          (relu): ReLU(inplace=True)
        )
        (18): Bottleneck(
          (conv1): Conv3d(1024, 256, kernel_size=(1, 1, 1), stride=(1, 1, 1), bias=False)
          (bn1): BatchNorm3d(256, eps=1e-05, momentum=0.1, affine=True, track_running_stats=True)
          (conv2): Conv3d(256, 256, kernel_size=(1, 3, 3), stride=(1, 1, 1), padding=(0, 1, 1), bias=False)
          (bn2): BatchNorm3d(256, eps=1e-05, momentum=0.1, affine=True, track_running_stats=True)
          (conv3): Conv3d(256, 1024, kernel_size=(1, 1, 1), stride=(1, 1, 1), bias=False)
          (bn3): BatchNorm3d(1024, eps=1e-05, momentum=0.1, affine=True, track_running_stats=True)
          (relu): ReLU(inplace=True)
        )
        (19): Bottleneck(
          (conv1): Conv3d(1024, 256, kernel_size=(1, 1, 1), stride=(1, 1, 1), bias=False)
          (bn1): BatchNorm3d(256, eps=1e-05, momentum=0.1, affine=True, track_running_stats=True)
          (conv2): Conv3d(256, 256, kernel_size=(1, 3, 3), stride=(1, 1, 1), padding=(0, 1, 1), bias=False)
          (bn2): BatchNorm3d(256, eps=1e-05, momentum=0.1, affine=True, track_running_stats=True)
          (conv3): Conv3d(256, 1024, kernel_size=(1, 1, 1), stride=(1, 1, 1), bias=False)
          (bn3): BatchNorm3d(1024, eps=1e-05, momentum=0.1, affine=True, track_running_stats=True)
          (relu): ReLU(inplace=True)
        )
        (20): Bottleneck(
          (conv1): Conv3d(1024, 256, kernel_size=(1, 1, 1), stride=(1, 1, 1), bias=False)
          (bn1): BatchNorm3d(256, eps=1e-05, momentum=0.1, affine=True, track_running_stats=True)
          (conv2): Conv3d(256, 256, kernel_size=(1, 3, 3), stride=(1, 1, 1), padding=(0, 1, 1), bias=False)
          (bn2): BatchNorm3d(256, eps=1e-05, momentum=0.1, affine=True, track_running_stats=True)
          (conv3): Conv3d(256, 1024, kernel_size=(1, 1, 1), stride=(1, 1, 1), bias=False)
          (bn3): BatchNorm3d(1024, eps=1e-05, momentum=0.1, affine=True, track_running_stats=True)
          (relu): ReLU(inplace=True)
        )
        (21): Bottleneck(
          (conv1): Conv3d(1024, 256, kernel_size=(1, 1, 1), stride=(1, 1, 1), bias=False)
          (bn1): BatchNorm3d(256, eps=1e-05, momentum=0.1, affine=True, track_running_stats=True)
          (conv2): Conv3d(256, 256, kernel_size=(1, 3, 3), stride=(1, 1, 1), padding=(0, 1, 1), bias=False)
          (bn2): BatchNorm3d(256, eps=1e-05, momentum=0.1, affine=True, track_running_stats=True)
          (conv3): Conv3d(256, 1024, kernel_size=(1, 1, 1), stride=(1, 1, 1), bias=False)
          (bn3): BatchNorm3d(1024, eps=1e-05, momentum=0.1, affine=True, track_running_stats=True)
          (relu): ReLU(inplace=True)
        )
        (22): Stage(
          (t): Conv3d(1024, 512, kernel_size=(1, 1, 1), stride=(1, 1, 1), bias=False)
          (p): Conv3d(1024, 512, kernel_size=(1, 1, 1), stride=(1, 1, 1), bias=False)
          (stages): Sequential(
            (0): SNLUnit(
              (g): Conv3d(1024, 512, kernel_size=(1, 1, 1), stride=(1, 1, 1), bias=False)
              (bn): BatchNorm3d(1024, eps=1e-05, momentum=0.1, affine=True, track_running_stats=True)
              (w_1): Conv3d(512, 1024, kernel_size=(1, 1, 1), stride=(1, 1, 1), bias=False)
              (w_2): Conv3d(512, 1024, kernel_size=(1, 1, 1), stride=(1, 1, 1), bias=False)
            )
            (1): SNLUnit(
              (g): Conv3d(1024, 512, kernel_size=(1, 1, 1), stride=(1, 1, 1), bias=False)
              (bn): BatchNorm3d(1024, eps=1e-05, momentum=0.1, affine=True, track_running_stats=True)
              (w_1): Conv3d(512, 1024, kernel_size=(1, 1, 1), stride=(1, 1, 1), bias=False)
              (w_2): Conv3d(512, 1024, kernel_size=(1, 1, 1), stride=(1, 1, 1), bias=False)
            )
            (2): SNLUnit(
              (g): Conv3d(1024, 512, kernel_size=(1, 1, 1), stride=(1, 1, 1), bias=False)
              (bn): BatchNorm3d(1024, eps=1e-05, momentum=0.1, affine=True, track_running_stats=True)
              (w_1): Conv3d(512, 1024, kernel_size=(1, 1, 1), stride=(1, 1, 1), bias=False)
              (w_2): Conv3d(512, 1024, kernel_size=(1, 1, 1), stride=(1, 1, 1), bias=False)
            )
            (3): SNLUnit(
              (g): Conv3d(1024, 512, kernel_size=(1, 1, 1), stride=(1, 1, 1), bias=False)
              (bn): BatchNorm3d(1024, eps=1e-05, momentum=0.1, affine=True, track_running_stats=True)
              (w_1): Conv3d(512, 1024, kernel_size=(1, 1, 1), stride=(1, 1, 1), bias=False)
              (w_2): Conv3d(512, 1024, kernel_size=(1, 1, 1), stride=(1, 1, 1), bias=False)
            )
            (4): SNLUnit(
              (g): Conv3d(1024, 512, kernel_size=(1, 1, 1), stride=(1, 1, 1), bias=False)
              (bn): BatchNorm3d(1024, eps=1e-05, momentum=0.1, affine=True, track_running_stats=True)
              (w_1): Conv3d(512, 1024, kernel_size=(1, 1, 1), stride=(1, 1, 1), bias=False)
              (w_2): Conv3d(512, 1024, kernel_size=(1, 1, 1), stride=(1, 1, 1), bias=False)
            )
          )
        )
        (23): Bottleneck(
          (conv1): Conv3d(1024, 256, kernel_size=(1, 1, 1), stride=(1, 1, 1), bias=False)
          (bn1): BatchNorm3d(256, eps=1e-05, momentum=0.1, affine=True, track_running_stats=True)
          (conv2): Conv3d(256, 256, kernel_size=(1, 3, 3), stride=(1, 1, 1), padding=(0, 1, 1), bias=False)
          (bn2): BatchNorm3d(256, eps=1e-05, momentum=0.1, affine=True, track_running_stats=True)
          (conv3): Conv3d(256, 1024, kernel_size=(1, 1, 1), stride=(1, 1, 1), bias=False)
          (bn3): BatchNorm3d(1024, eps=1e-05, momentum=0.1, affine=True, track_running_stats=True)
          (relu): ReLU(inplace=True)
        )
      )
      (nonlocal_block_slow4): NonLocalBlock3D(
        (g): Conv3d(1024, 512, kernel_size=(1, 1, 1), stride=(1, 1, 1))
        (theta): Conv3d(1024, 512, kernel_size=(1, 1, 1), stride=(1, 1, 1))
        (phi): Conv3d(1024, 512, kernel_size=(1, 1, 1), stride=(1, 1, 1))
        (W): Sequential(
          (0): Conv3d(512, 1024, kernel_size=(1, 1, 1), stride=(1, 1, 1))
          (1): BatchNorm3d(1024, eps=1e-05, momentum=0.1, affine=True, track_running_stats=True)
        )
        (cbam): CBAM(
          (channel_attention): ChannelAttention(
            (avg_pool): AdaptiveAvgPool3d(output_size=1)
            (max_pool): AdaptiveMaxPool3d(output_size=1)
            (fc): Sequential(
              (0): Conv3d(1024, 64, kernel_size=(1, 1, 1), stride=(1, 1, 1), bias=False)
              (1): ReLU()
              (2): Conv3d(64, 1024, kernel_size=(1, 1, 1), stride=(1, 1, 1), bias=False)
            )
            (sigmoid): Sigmoid()
          )
          (spatial_attention): SpatialAttention(
            (conv): Conv3d(2, 1, kernel_size=(7, 7, 7), stride=(1, 1, 1), padding=(3, 3, 3), bias=False)
            (sigmoid): Sigmoid()
          )
        )
      )
      (slow_res5): Sequential(
        (0): Bottleneck(
          (conv1): Conv3d(1280, 512, kernel_size=(3, 1, 1), stride=(1, 1, 1), padding=(1, 0, 0), bias=False)
          (bn1): BatchNorm3d(512, eps=1e-05, momentum=0.1, affine=True, track_running_stats=True)
          (conv2): Conv3d(512, 512, kernel_size=(1, 3, 3), stride=(1, 2, 2), padding=(0, 1, 1), bias=False)
          (bn2): BatchNorm3d(512, eps=1e-05, momentum=0.1, affine=True, track_running_stats=True)
          (conv3): Conv3d(512, 2048, kernel_size=(1, 1, 1), stride=(1, 1, 1), bias=False)
          (bn3): BatchNorm3d(2048, eps=1e-05, momentum=0.1, affine=True, track_running_stats=True)
          (relu): ReLU(inplace=True)
          (downsample): Sequential(
            (0): Conv3d(1280, 2048, kernel_size=(1, 1, 1), stride=(1, 2, 2), bias=False)
            (1): BatchNorm3d(2048, eps=1e-05, momentum=0.1, affine=True, track_running_stats=True)
          )
        )
        (1): Bottleneck(
          (conv1): Conv3d(2048, 512, kernel_size=(3, 1, 1), stride=(1, 1, 1), padding=(1, 0, 0), bias=False)
          (bn1): BatchNorm3d(512, eps=1e-05, momentum=0.1, affine=True, track_running_stats=True)
          (conv2): Conv3d(512, 512, kernel_size=(1, 3, 3), stride=(1, 1, 1), padding=(0, 1, 1), bias=False)
          (bn2): BatchNorm3d(512, eps=1e-05, momentum=0.1, affine=True, track_running_stats=True)
          (conv3): Conv3d(512, 2048, kernel_size=(1, 1, 1), stride=(1, 1, 1), bias=False)
          (bn3): BatchNorm3d(2048, eps=1e-05, momentum=0.1, affine=True, track_running_stats=True)
          (relu): ReLU(inplace=True)
        )
        (2): Bottleneck(
          (conv1): Conv3d(2048, 512, kernel_size=(3, 1, 1), stride=(1, 1, 1), padding=(1, 0, 0), bias=False)
          (bn1): BatchNorm3d(512, eps=1e-05, momentum=0.1, affine=True, track_running_stats=True)
          (conv2): Conv3d(512, 512, kernel_size=(1, 3, 3), stride=(1, 1, 1), padding=(0, 1, 1), bias=False)
          (bn2): BatchNorm3d(512, eps=1e-05, momentum=0.1, affine=True, track_running_stats=True)
          (conv3): Conv3d(512, 2048, kernel_size=(1, 1, 1), stride=(1, 1, 1), bias=False)
          (bn3): BatchNorm3d(2048, eps=1e-05, momentum=0.1, affine=True, track_running_stats=True)
          (relu): ReLU(inplace=True)
        )
      )
    )
  )
  (cls_channel_encoders): ModuleList(
    (0-2): 3 x ChannelEncoder(
      (fuse_convs): Sequential(
        (0): Conv2d(
          (convs): Sequential(
            (0): Conv2d(2560, 256, kernel_size=(1, 1), stride=(1, 1), bias=False)
            (1): BatchNorm2d(256, eps=0.001, momentum=0.03, affine=True, track_running_stats=True)
            (2): SiLU(inplace=True)
          )
        )
        (1): Conv2d(
          (convs): Sequential(
            (0): Conv2d(256, 256, kernel_size=(3, 3), stride=(1, 1), padding=(1, 1), bias=False)
            (1): BatchNorm2d(256, eps=0.001, momentum=0.03, affine=True, track_running_stats=True)
            (2): SiLU(inplace=True)
          )
        )
        (2): CSAM(
          (softmax): Softmax(dim=-1)
        )
        (3): Conv2d(
          (convs): Sequential(
            (0): Conv2d(256, 256, kernel_size=(3, 3), stride=(1, 1), padding=(1, 1), bias=False)
            (1): BatchNorm2d(256, eps=0.001, momentum=0.03, affine=True, track_running_stats=True)
            (2): SiLU(inplace=True)
          )
        )
        (4): Dropout(p=0.1, inplace=False)
        (5): Conv2d(256, 256, kernel_size=(1, 1), stride=(1, 1))
      )
    )
  )
  (reg_channel_encoders): ModuleList(
    (0-2): 3 x ChannelEncoder(
      (fuse_convs): Sequential(
        (0): Conv2d(
          (convs): Sequential(
            (0): Conv2d(2560, 256, kernel_size=(1, 1), stride=(1, 1), bias=False)
            (1): BatchNorm2d(256, eps=0.001, momentum=0.03, affine=True, track_running_stats=True)
            (2): SiLU(inplace=True)
          )
        )
        (1): Conv2d(
          (convs): Sequential(
            (0): Conv2d(256, 256, kernel_size=(3, 3), stride=(1, 1), padding=(1, 1), bias=False)
            (1): BatchNorm2d(256, eps=0.001, momentum=0.03, affine=True, track_running_stats=True)
            (2): SiLU(inplace=True)
          )
        )
        (2): CSAM(
          (softmax): Softmax(dim=-1)
        )
        (3): Conv2d(
          (convs): Sequential(
            (0): Conv2d(256, 256, kernel_size=(3, 3), stride=(1, 1), padding=(1, 1), bias=False)
            (1): BatchNorm2d(256, eps=0.001, momentum=0.03, affine=True, track_running_stats=True)
            (2): SiLU(inplace=True)
          )
        )
        (4): Dropout(p=0.1, inplace=False)
        (5): Conv2d(256, 256, kernel_size=(1, 1), stride=(1, 1))
      )
    )
  )
  (heads): ModuleList(
    (0-2): 3 x DecoupledHead(
      (cls_head): Sequential(
        (0): Conv2d(
          (convs): Sequential(
            (0): Conv2d(256, 256, kernel_size=(3, 3), stride=(1, 1), padding=(1, 1), bias=False)
            (1): BatchNorm2d(256, eps=0.001, momentum=0.03, affine=True, track_running_stats=True)
            (2): SiLU(inplace=True)
          )
        )
        (1): Conv2d(
          (convs): Sequential(
            (0): Conv2d(256, 256, kernel_size=(3, 3), stride=(1, 1), padding=(1, 1), bias=False)
            (1): BatchNorm2d(256, eps=0.001, momentum=0.03, affine=True, track_running_stats=True)
            (2): SiLU(inplace=True)
          )
        )
      )
      (reg_head): Sequential(
        (0): Conv2d(
          (convs): Sequential(
            (0): Conv2d(256, 256, kernel_size=(3, 3), stride=(1, 1), padding=(1, 1), bias=False)
            (1): BatchNorm2d(256, eps=0.001, momentum=0.03, affine=True, track_running_stats=True)
            (2): SiLU(inplace=True)
          )
        )
        (1): Conv2d(
          (convs): Sequential(
            (0): Conv2d(256, 256, kernel_size=(3, 3), stride=(1, 1), padding=(1, 1), bias=False)
            (1): BatchNorm2d(256, eps=0.001, momentum=0.03, affine=True, track_running_stats=True)
            (2): SiLU(inplace=True)
          )
        )
      )
    )
  )
  (conf_preds): ModuleList(
    (0-2): 3 x Conv2d(256, 1, kernel_size=(1, 1), stride=(1, 1))
  )
  (cls_preds): ModuleList(
    (0-2): 3 x Conv2d(256, 10, kernel_size=(1, 1), stride=(1, 1))
  )
  (reg_preds): ModuleList(
    (0-2): 3 x Conv2d(256, 4, kernel_size=(1, 1), stride=(1, 1))
…
